{"format": "graph-model", "generatedBy": "2.10.1", "convertedBy": "TensorFlow.js Converter v3.19.0", "signature": {"inputs": {"input_1": {"name": "input_1:0", "dtype": "DT_FLOAT", "tensorShape": {"dim": [{"size": "-1"}, {"size": "15"}, {"size": "94"}]}}}, "outputs": {"dense_3": {"name": "Identity:0", "dtype": "DT_FLOAT", "tensorShape": {"dim": [{"size": "-1"}, {"size": "6"}]}}}}, "modelTopology": {"node": [{"name": "StatefulPartitionedCall/sequential/bidirectional_2/forward_lstm_2/PartitionedCall/TensorArrayV2_1/element_shape", "op": "Const", "attr": {"value": {"tensor": {"dtype": "DT_INT32", "tensorShape": {"dim": [{"size": "2"}]}}}, "dtype": {"type": "DT_INT32"}}}, {"name": "StatefulPartitionedCall/sequential/bidirectional_2/forward_lstm_2/PartitionedCall/TensorArrayV2_1/num_elements", "op": "Const", "attr": {"dtype": {"type": "DT_INT32"}, "value": {"tensor": {"dtype": "DT_INT32", "tensorShape": {}}}}}, {"name": "StatefulPartitionedCall/sequential/bidirectional_2/forward_lstm_2/zeros_1/packed/1", "op": "Const", "attr": {"value": {"tensor": {"dtype": "DT_INT32", "tensorShape": {}}}, "dtype": {"type": "DT_INT32"}}}, {"name": "StatefulPartitionedCall/sequential/bidirectional_2/forward_lstm_2/zeros_1/Const", "op": "Const", "attr": {"value": {"tensor": {"dtype": "DT_FLOAT", "tensorShape": {}}}, "dtype": {"type": "DT_FLOAT"}}}, {"name": "StatefulPartitionedCall/sequential/bidirectional_2/forward_lstm_2/PartitionedCall/TensorArrayUnstack/TensorListFromTensor/element_shape", "op": "Const", "attr": {"dtype": {"type": "DT_INT32"}, "value": {"tensor": {"dtype": "DT_INT32", "tensorShape": {"dim": [{"size": "2"}]}}}}}, {"name": "StatefulPartitionedCall/sequential/bidirectional_2/forward_lstm_2/Read/ReadVariableOp", "op": "Const", "attr": {"dtype": {"type": "DT_FLOAT"}, "value": {"tensor": {"dtype": "DT_FLOAT", "tensorShape": {"dim": [{"size": "512"}, {"size": "2048"}]}}}}}, {"name": "StatefulPartitionedCall/sequential/bidirectional_2/forward_lstm_2/strided_slice/stack", "op": "Const", "attr": {"dtype": {"type": "DT_INT32"}, "value": {"tensor": {"dtype": "DT_INT32", "tensorShape": {"dim": [{"size": "1"}]}}}}}, {"name": "StatefulPartitionedCall/sequential/bidirectional_2/forward_lstm_2/strided_slice/stack_1", "op": "Const", "attr": {"dtype": {"type": "DT_INT32"}, "value": {"tensor": {"dtype": "DT_INT32", "tensorShape": {"dim": [{"size": "1"}]}}}}}, {"name": "StatefulPartitionedCall/sequential/bidirectional_2/forward_lstm_2/strided_slice/stack_2", "op": "Const", "attr": {"dtype": {"type": "DT_INT32"}, "value": {"tensor": {"dtype": "DT_INT32", "tensorShape": {"dim": [{"size": "1"}]}}}}}, {"name": "StatefulPartitionedCall/sequential/bidirectional_2/forward_lstm_2/zeros/packed/1", "op": "Const", "attr": {"value": {"tensor": {"dtype": "DT_INT32", "tensorShape": {}}}, "dtype": {"type": "DT_INT32"}}}, {"name": "StatefulPartitionedCall/sequential/bidirectional_2/forward_lstm_2/zeros/Const", "op": "Const", "attr": {"value": {"tensor": {"dtype": "DT_FLOAT", "tensorShape": {}}}, "dtype": {"type": "DT_FLOAT"}}}, {"name": "StatefulPartitionedCall/sequential/bidirectional_2/forward_lstm_2/Read_1/ReadVariableOp", "op": "Const", "attr": {"dtype": {"type": "DT_FLOAT"}, "value": {"tensor": {"dtype": "DT_FLOAT", "tensorShape": {"dim": [{"size": "512"}, {"size": "2048"}]}}}}}, {"name": "StatefulPartitionedCall/sequential/bidirectional_2/forward_lstm_2/Read_2/ReadVariableOp", "op": "Const", "attr": {"value": {"tensor": {"dtype": "DT_FLOAT", "tensorShape": {"dim": [{"size": "2048"}]}}}, "dtype": {"type": "DT_FLOAT"}}}, {"name": "StatefulPartitionedCall/sequential/bidirectional_2/forward_lstm_2/PartitionedCall/time", "op": "Const", "attr": {"value": {"tensor": {"dtype": "DT_INT32", "tensorShape": {}}}, "dtype": {"type": "DT_INT32"}}}, {"name": "StatefulPartitionedCall/sequential/bidirectional_2/forward_lstm_2/PartitionedCall/transpose/perm", "op": "Const", "attr": {"value": {"tensor": {"dtype": "DT_INT32", "tensorShape": {"dim": [{"size": "3"}]}}}, "dtype": {"type": "DT_INT32"}}}, {"name": "StatefulPartitionedCall/sequential/bidirectional_2/forward_lstm_2/PartitionedCall/strided_slice/stack", "op": "Const", "attr": {"value": {"tensor": {"dtype": "DT_INT32", "tensorShape": {"dim": [{"size": "1"}]}}}, "dtype": {"type": "DT_INT32"}}}, {"name": "StatefulPartitionedCall/sequential/bidirectional_2/forward_lstm_2/PartitionedCall/strided_slice/stack_1", "op": "Const", "attr": {"dtype": {"type": "DT_INT32"}, "value": {"tensor": {"dtype": "DT_INT32", "tensorShape": {"dim": [{"size": "1"}]}}}}}, {"name": "StatefulPartitionedCall/sequential/bidirectional_2/forward_lstm_2/PartitionedCall/strided_slice/stack_2", "op": "Const", "attr": {"value": {"tensor": {"dtype": "DT_INT32", "tensorShape": {"dim": [{"size": "1"}]}}}, "dtype": {"type": "DT_INT32"}}}, {"name": "StatefulPartitionedCall/sequential/bidirectional_2/forward_lstm_2/PartitionedCall/while/loop_counter", "op": "Const", "attr": {"value": {"tensor": {"dtype": "DT_INT32", "tensorShape": {}}}, "dtype": {"type": "DT_INT32"}}}, {"name": "StatefulPartitionedCall/sequential/bidirectional_2/forward_lstm_2/PartitionedCall/TensorArrayV2Stack/TensorListStack/element_shape", "op": "Const", "attr": {"value": {"tensor": {"dtype": "DT_INT32", "tensorShape": {"dim": [{"size": "2"}]}}}, "dtype": {"type": "DT_INT32"}}}, {"name": "StatefulPartitionedCall/sequential/bidirectional_2/forward_lstm_2/PartitionedCall/strided_slice_2/stack", "op": "Const", "attr": {"value": {"tensor": {"dtype": "DT_INT32", "tensorShape": {"dim": [{"size": "1"}]}}}, "dtype": {"type": "DT_INT32"}}}, {"name": "StatefulPartitionedCall/sequential/bidirectional_2/forward_lstm_2/PartitionedCall/strided_slice_2/stack_1", "op": "Const", "attr": {"dtype": {"type": "DT_INT32"}, "value": {"tensor": {"dtype": "DT_INT32", "tensorShape": {"dim": [{"size": "1"}]}}}}}, {"name": "StatefulPartitionedCall/sequential/bidirectional_2/forward_lstm_2/PartitionedCall/strided_slice_2/stack_2", "op": "Const", "attr": {"dtype": {"type": "DT_INT32"}, "value": {"tensor": {"dtype": "DT_INT32", "tensorShape": {"dim": [{"size": "1"}]}}}}}, {"name": "StatefulPartitionedCall/sequential/bidirectional_2/backward_lstm_2/PartitionedCall/TensorArrayV2_1/element_shape", "op": "Const", "attr": {"value": {"tensor": {"dtype": "DT_INT32", "tensorShape": {"dim": [{"size": "2"}]}}}, "dtype": {"type": "DT_INT32"}}}, {"name": "StatefulPartitionedCall/sequential/bidirectional_2/backward_lstm_2/PartitionedCall/TensorArrayV2_1/num_elements", "op": "Const", "attr": {"value": {"tensor": {"dtype": "DT_INT32", "tensorShape": {}}}, "dtype": {"type": "DT_INT32"}}}, {"name": "StatefulPartitionedCall/sequential/bidirectional_2/backward_lstm_2/zeros_1/packed/1", "op": "Const", "attr": {"dtype": {"type": "DT_INT32"}, "value": {"tensor": {"dtype": "DT_INT32", "tensorShape": {}}}}}, {"name": "StatefulPartitionedCall/sequential/bidirectional_2/backward_lstm_2/zeros_1/Const", "op": "Const", "attr": {"value": {"tensor": {"dtype": "DT_FLOAT", "tensorShape": {}}}, "dtype": {"type": "DT_FLOAT"}}}, {"name": "StatefulPartitionedCall/sequential/bidirectional_2/backward_lstm_2/PartitionedCall/ReverseV2/axis", "op": "Const", "attr": {"value": {"tensor": {"dtype": "DT_INT32", "tensorShape": {"dim": [{"size": "1"}]}}}, "dtype": {"type": "DT_INT32"}}}, {"name": "StatefulPartitionedCall/sequential/bidirectional_2/backward_lstm_2/PartitionedCall/TensorArrayUnstack/TensorListFromTensor/element_shape", "op": "Const", "attr": {"dtype": {"type": "DT_INT32"}, "value": {"tensor": {"dtype": "DT_INT32", "tensorShape": {"dim": [{"size": "2"}]}}}}}, {"name": "StatefulPartitionedCall/sequential/bidirectional_2/backward_lstm_2/Read/ReadVariableOp", "op": "Const", "attr": {"value": {"tensor": {"dtype": "DT_FLOAT", "tensorShape": {"dim": [{"size": "512"}, {"size": "2048"}]}}}, "dtype": {"type": "DT_FLOAT"}}}, {"name": "StatefulPartitionedCall/sequential/bidirectional_2/backward_lstm_2/strided_slice/stack", "op": "Const", "attr": {"dtype": {"type": "DT_INT32"}, "value": {"tensor": {"dtype": "DT_INT32", "tensorShape": {"dim": [{"size": "1"}]}}}}}, {"name": "StatefulPartitionedCall/sequential/bidirectional_2/backward_lstm_2/strided_slice/stack_1", "op": "Const", "attr": {"value": {"tensor": {"dtype": "DT_INT32", "tensorShape": {"dim": [{"size": "1"}]}}}, "dtype": {"type": "DT_INT32"}}}, {"name": "StatefulPartitionedCall/sequential/bidirectional_2/backward_lstm_2/strided_slice/stack_2", "op": "Const", "attr": {"dtype": {"type": "DT_INT32"}, "value": {"tensor": {"dtype": "DT_INT32", "tensorShape": {"dim": [{"size": "1"}]}}}}}, {"name": "StatefulPartitionedCall/sequential/bidirectional_2/backward_lstm_2/zeros/packed/1", "op": "Const", "attr": {"dtype": {"type": "DT_INT32"}, "value": {"tensor": {"dtype": "DT_INT32", "tensorShape": {}}}}}, {"name": "StatefulPartitionedCall/sequential/bidirectional_2/backward_lstm_2/zeros/Const", "op": "Const", "attr": {"dtype": {"type": "DT_FLOAT"}, "value": {"tensor": {"dtype": "DT_FLOAT", "tensorShape": {}}}}}, {"name": "StatefulPartitionedCall/sequential/bidirectional_2/backward_lstm_2/Read_1/ReadVariableOp", "op": "Const", "attr": {"value": {"tensor": {"dtype": "DT_FLOAT", "tensorShape": {"dim": [{"size": "512"}, {"size": "2048"}]}}}, "dtype": {"type": "DT_FLOAT"}}}, {"name": "StatefulPartitionedCall/sequential/bidirectional_2/backward_lstm_2/Read_2/ReadVariableOp", "op": "Const", "attr": {"dtype": {"type": "DT_FLOAT"}, "value": {"tensor": {"dtype": "DT_FLOAT", "tensorShape": {"dim": [{"size": "2048"}]}}}}}, {"name": "StatefulPartitionedCall/sequential/bidirectional_2/backward_lstm_2/PartitionedCall/time", "op": "Const", "attr": {"dtype": {"type": "DT_INT32"}, "value": {"tensor": {"dtype": "DT_INT32", "tensorShape": {}}}}}, {"name": "StatefulPartitionedCall/sequential/bidirectional_1/forward_lstm_1/PartitionedCall/TensorArrayV2_1/element_shape", "op": "Const", "attr": {"dtype": {"type": "DT_INT32"}, "value": {"tensor": {"dtype": "DT_INT32", "tensorShape": {"dim": [{"size": "2"}]}}}}}, {"name": "StatefulPartitionedCall/sequential/bidirectional_1/forward_lstm_1/zeros_1/packed/1", "op": "Const", "attr": {"dtype": {"type": "DT_INT32"}, "value": {"tensor": {"dtype": "DT_INT32", "tensorShape": {}}}}}, {"name": "StatefulPartitionedCall/sequential/bidirectional_1/forward_lstm_1/zeros_1/Const", "op": "Const", "attr": {"dtype": {"type": "DT_FLOAT"}, "value": {"tensor": {"dtype": "DT_FLOAT", "tensorShape": {}}}}}, {"name": "StatefulPartitionedCall/sequential/bidirectional_1/forward_lstm_1/PartitionedCall/TensorArrayUnstack/TensorListFromTensor/element_shape", "op": "Const", "attr": {"dtype": {"type": "DT_INT32"}, "value": {"tensor": {"dtype": "DT_INT32", "tensorShape": {"dim": [{"size": "2"}]}}}}}, {"name": "StatefulPartitionedCall/sequential/bidirectional_1/forward_lstm_1/Read/ReadVariableOp", "op": "Const", "attr": {"value": {"tensor": {"dtype": "DT_FLOAT", "tensorShape": {"dim": [{"size": "256"}, {"size": "1024"}]}}}, "dtype": {"type": "DT_FLOAT"}}}, {"name": "StatefulPartitionedCall/sequential/bidirectional_1/forward_lstm_1/strided_slice/stack", "op": "Const", "attr": {"dtype": {"type": "DT_INT32"}, "value": {"tensor": {"dtype": "DT_INT32", "tensorShape": {"dim": [{"size": "1"}]}}}}}, {"name": "StatefulPartitionedCall/sequential/bidirectional_1/forward_lstm_1/strided_slice/stack_1", "op": "Const", "attr": {"dtype": {"type": "DT_INT32"}, "value": {"tensor": {"dtype": "DT_INT32", "tensorShape": {"dim": [{"size": "1"}]}}}}}, {"name": "StatefulPartitionedCall/sequential/bidirectional_1/forward_lstm_1/strided_slice/stack_2", "op": "Const", "attr": {"dtype": {"type": "DT_INT32"}, "value": {"tensor": {"dtype": "DT_INT32", "tensorShape": {"dim": [{"size": "1"}]}}}}}, {"name": "StatefulPartitionedCall/sequential/bidirectional_1/forward_lstm_1/zeros/packed/1", "op": "Const", "attr": {"dtype": {"type": "DT_INT32"}, "value": {"tensor": {"dtype": "DT_INT32", "tensorShape": {}}}}}, {"name": "StatefulPartitionedCall/sequential/bidirectional_1/forward_lstm_1/zeros/Const", "op": "Const", "attr": {"dtype": {"type": "DT_FLOAT"}, "value": {"tensor": {"dtype": "DT_FLOAT", "tensorShape": {}}}}}, {"name": "StatefulPartitionedCall/sequential/bidirectional_1/forward_lstm_1/Read_1/ReadVariableOp", "op": "Const", "attr": {"dtype": {"type": "DT_FLOAT"}, "value": {"tensor": {"dtype": "DT_FLOAT", "tensorShape": {"dim": [{"size": "256"}, {"size": "1024"}]}}}}}, {"name": "StatefulPartitionedCall/sequential/bidirectional_1/forward_lstm_1/Read_2/ReadVariableOp", "op": "Const", "attr": {"value": {"tensor": {"dtype": "DT_FLOAT", "tensorShape": {"dim": [{"size": "1024"}]}}}, "dtype": {"type": "DT_FLOAT"}}}, {"name": "StatefulPartitionedCall/sequential/bidirectional_1/forward_lstm_1/PartitionedCall/time", "op": "Const", "attr": {"dtype": {"type": "DT_INT32"}, "value": {"tensor": {"dtype": "DT_INT32", "tensorShape": {}}}}}, {"name": "StatefulPartitionedCall/sequential/bidirectional_1/forward_lstm_1/PartitionedCall/transpose/perm", "op": "Const", "attr": {"dtype": {"type": "DT_INT32"}, "value": {"tensor": {"dtype": "DT_INT32", "tensorShape": {"dim": [{"size": "3"}]}}}}}, {"name": "StatefulPartitionedCall/sequential/bidirectional_1/forward_lstm_1/PartitionedCall/strided_slice/stack", "op": "Const", "attr": {"value": {"tensor": {"dtype": "DT_INT32", "tensorShape": {"dim": [{"size": "1"}]}}}, "dtype": {"type": "DT_INT32"}}}, {"name": "StatefulPartitionedCall/sequential/bidirectional_1/forward_lstm_1/PartitionedCall/strided_slice/stack_1", "op": "Const", "attr": {"dtype": {"type": "DT_INT32"}, "value": {"tensor": {"dtype": "DT_INT32", "tensorShape": {"dim": [{"size": "1"}]}}}}}, {"name": "StatefulPartitionedCall/sequential/bidirectional_1/forward_lstm_1/PartitionedCall/strided_slice/stack_2", "op": "Const", "attr": {"dtype": {"type": "DT_INT32"}, "value": {"tensor": {"dtype": "DT_INT32", "tensorShape": {"dim": [{"size": "1"}]}}}}}, {"name": "StatefulPartitionedCall/sequential/bidirectional_1/forward_lstm_1/PartitionedCall/while/loop_counter", "op": "Const", "attr": {"dtype": {"type": "DT_INT32"}, "value": {"tensor": {"dtype": "DT_INT32", "tensorShape": {}}}}}, {"name": "StatefulPartitionedCall/sequential/bidirectional_1/forward_lstm_1/PartitionedCall/TensorArrayV2Stack/TensorListStack/element_shape", "op": "Const", "attr": {"value": {"tensor": {"dtype": "DT_INT32", "tensorShape": {"dim": [{"size": "2"}]}}}, "dtype": {"type": "DT_INT32"}}}, {"name": "StatefulPartitionedCall/sequential/bidirectional_1/forward_lstm_1/PartitionedCall/transpose_1/perm", "op": "Const", "attr": {"dtype": {"type": "DT_INT32"}, "value": {"tensor": {"dtype": "DT_INT32", "tensorShape": {"dim": [{"size": "3"}]}}}}}, {"name": "StatefulPartitionedCall/sequential/bidirectional_1/backward_lstm_1/PartitionedCall/TensorArrayV2_1/element_shape", "op": "Const", "attr": {"dtype": {"type": "DT_INT32"}, "value": {"tensor": {"dtype": "DT_INT32", "tensorShape": {"dim": [{"size": "2"}]}}}}}, {"name": "StatefulPartitionedCall/sequential/bidirectional_1/backward_lstm_1/zeros_1/packed/1", "op": "Const", "attr": {"dtype": {"type": "DT_INT32"}, "value": {"tensor": {"dtype": "DT_INT32", "tensorShape": {}}}}}, {"name": "StatefulPartitionedCall/sequential/bidirectional_1/backward_lstm_1/zeros_1/Const", "op": "Const", "attr": {"value": {"tensor": {"dtype": "DT_FLOAT", "tensorShape": {}}}, "dtype": {"type": "DT_FLOAT"}}}, {"name": "StatefulPartitionedCall/sequential/bidirectional_1/backward_lstm_1/PartitionedCall/ReverseV2/axis", "op": "Const", "attr": {"dtype": {"type": "DT_INT32"}, "value": {"tensor": {"dtype": "DT_INT32", "tensorShape": {"dim": [{"size": "1"}]}}}}}, {"name": "StatefulPartitionedCall/sequential/bidirectional_1/backward_lstm_1/PartitionedCall/TensorArrayUnstack/TensorListFromTensor/element_shape", "op": "Const", "attr": {"dtype": {"type": "DT_INT32"}, "value": {"tensor": {"dtype": "DT_INT32", "tensorShape": {"dim": [{"size": "2"}]}}}}}, {"name": "StatefulPartitionedCall/sequential/bidirectional_1/backward_lstm_1/Read/ReadVariableOp", "op": "Const", "attr": {"dtype": {"type": "DT_FLOAT"}, "value": {"tensor": {"dtype": "DT_FLOAT", "tensorShape": {"dim": [{"size": "256"}, {"size": "1024"}]}}}}}, {"name": "StatefulPartitionedCall/sequential/bidirectional_1/backward_lstm_1/strided_slice/stack", "op": "Const", "attr": {"value": {"tensor": {"dtype": "DT_INT32", "tensorShape": {"dim": [{"size": "1"}]}}}, "dtype": {"type": "DT_INT32"}}}, {"name": "StatefulPartitionedCall/sequential/bidirectional_1/backward_lstm_1/strided_slice/stack_1", "op": "Const", "attr": {"dtype": {"type": "DT_INT32"}, "value": {"tensor": {"dtype": "DT_INT32", "tensorShape": {"dim": [{"size": "1"}]}}}}}, {"name": "StatefulPartitionedCall/sequential/bidirectional_1/backward_lstm_1/strided_slice/stack_2", "op": "Const", "attr": {"value": {"tensor": {"dtype": "DT_INT32", "tensorShape": {"dim": [{"size": "1"}]}}}, "dtype": {"type": "DT_INT32"}}}, {"name": "StatefulPartitionedCall/sequential/bidirectional_1/backward_lstm_1/zeros/packed/1", "op": "Const", "attr": {"value": {"tensor": {"dtype": "DT_INT32", "tensorShape": {}}}, "dtype": {"type": "DT_INT32"}}}, {"name": "StatefulPartitionedCall/sequential/bidirectional_1/backward_lstm_1/zeros/Const", "op": "Const", "attr": {"dtype": {"type": "DT_FLOAT"}, "value": {"tensor": {"dtype": "DT_FLOAT", "tensorShape": {}}}}}, {"name": "StatefulPartitionedCall/sequential/bidirectional_1/backward_lstm_1/Read_1/ReadVariableOp", "op": "Const", "attr": {"value": {"tensor": {"dtype": "DT_FLOAT", "tensorShape": {"dim": [{"size": "256"}, {"size": "1024"}]}}}, "dtype": {"type": "DT_FLOAT"}}}, {"name": "StatefulPartitionedCall/sequential/bidirectional_1/backward_lstm_1/Read_2/ReadVariableOp", "op": "Const", "attr": {"dtype": {"type": "DT_FLOAT"}, "value": {"tensor": {"dtype": "DT_FLOAT", "tensorShape": {"dim": [{"size": "1024"}]}}}}}, {"name": "StatefulPartitionedCall/sequential/bidirectional_1/backward_lstm_1/PartitionedCall/time", "op": "Const", "attr": {"dtype": {"type": "DT_INT32"}, "value": {"tensor": {"dtype": "DT_INT32", "tensorShape": {}}}}}, {"name": "StatefulPartitionedCall/sequential/bidirectional/forward_lstm/PartitionedCall/TensorArrayV2_1/element_shape", "op": "Const", "attr": {"dtype": {"type": "DT_INT32"}, "value": {"tensor": {"dtype": "DT_INT32", "tensorShape": {"dim": [{"size": "2"}]}}}}}, {"name": "StatefulPartitionedCall/sequential/bidirectional/forward_lstm/zeros_1/packed/1", "op": "Const", "attr": {"value": {"tensor": {"dtype": "DT_INT32", "tensorShape": {}}}, "dtype": {"type": "DT_INT32"}}}, {"name": "StatefulPartitionedCall/sequential/bidirectional/forward_lstm/zeros_1/Const", "op": "Const", "attr": {"dtype": {"type": "DT_FLOAT"}, "value": {"tensor": {"dtype": "DT_FLOAT", "tensorShape": {}}}}}, {"name": "StatefulPartitionedCall/sequential/bidirectional/forward_lstm/PartitionedCall/TensorArrayUnstack/TensorListFromTensor/element_shape", "op": "Const", "attr": {"dtype": {"type": "DT_INT32"}, "value": {"tensor": {"dtype": "DT_INT32", "tensorShape": {"dim": [{"size": "2"}]}}}}}, {"name": "StatefulPartitionedCall/sequential/bidirectional/forward_lstm/Read/ReadVariableOp", "op": "Const", "attr": {"value": {"tensor": {"dtype": "DT_FLOAT", "tensorShape": {"dim": [{"size": "256"}, {"size": "512"}]}}}, "dtype": {"type": "DT_FLOAT"}}}, {"name": "StatefulPartitionedCall/sequential/bidirectional/forward_lstm/strided_slice/stack", "op": "Const", "attr": {"value": {"tensor": {"dtype": "DT_INT32", "tensorShape": {"dim": [{"size": "1"}]}}}, "dtype": {"type": "DT_INT32"}}}, {"name": "StatefulPartitionedCall/sequential/bidirectional/forward_lstm/strided_slice/stack_1", "op": "Const", "attr": {"dtype": {"type": "DT_INT32"}, "value": {"tensor": {"dtype": "DT_INT32", "tensorShape": {"dim": [{"size": "1"}]}}}}}, {"name": "StatefulPartitionedCall/sequential/bidirectional/forward_lstm/strided_slice/stack_2", "op": "Const", "attr": {"value": {"tensor": {"dtype": "DT_INT32", "tensorShape": {"dim": [{"size": "1"}]}}}, "dtype": {"type": "DT_INT32"}}}, {"name": "StatefulPartitionedCall/sequential/bidirectional/forward_lstm/zeros/packed/1", "op": "Const", "attr": {"value": {"tensor": {"dtype": "DT_INT32", "tensorShape": {}}}, "dtype": {"type": "DT_INT32"}}}, {"name": "StatefulPartitionedCall/sequential/bidirectional/forward_lstm/zeros/Const", "op": "Const", "attr": {"value": {"tensor": {"dtype": "DT_FLOAT", "tensorShape": {}}}, "dtype": {"type": "DT_FLOAT"}}}, {"name": "StatefulPartitionedCall/sequential/bidirectional/forward_lstm/Read_1/ReadVariableOp", "op": "Const", "attr": {"value": {"tensor": {"dtype": "DT_FLOAT", "tensorShape": {"dim": [{"size": "128"}, {"size": "512"}]}}}, "dtype": {"type": "DT_FLOAT"}}}, {"name": "StatefulPartitionedCall/sequential/bidirectional/forward_lstm/Read_2/ReadVariableOp", "op": "Const", "attr": {"dtype": {"type": "DT_FLOAT"}, "value": {"tensor": {"dtype": "DT_FLOAT", "tensorShape": {"dim": [{"size": "512"}]}}}}}, {"name": "StatefulPartitionedCall/sequential/bidirectional/forward_lstm/PartitionedCall/time", "op": "Const", "attr": {"dtype": {"type": "DT_INT32"}, "value": {"tensor": {"dtype": "DT_INT32", "tensorShape": {}}}}}, {"name": "StatefulPartitionedCall/sequential/bidirectional/forward_lstm/PartitionedCall/transpose/perm", "op": "Const", "attr": {"dtype": {"type": "DT_INT32"}, "value": {"tensor": {"dtype": "DT_INT32", "tensorShape": {"dim": [{"size": "3"}]}}}}}, {"name": "StatefulPartitionedCall/sequential/bidirectional/forward_lstm/PartitionedCall/strided_slice/stack", "op": "Const", "attr": {"dtype": {"type": "DT_INT32"}, "value": {"tensor": {"dtype": "DT_INT32", "tensorShape": {"dim": [{"size": "1"}]}}}}}, {"name": "StatefulPartitionedCall/sequential/bidirectional/forward_lstm/PartitionedCall/strided_slice/stack_1", "op": "Const", "attr": {"dtype": {"type": "DT_INT32"}, "value": {"tensor": {"dtype": "DT_INT32", "tensorShape": {"dim": [{"size": "1"}]}}}}}, {"name": "StatefulPartitionedCall/sequential/bidirectional/forward_lstm/PartitionedCall/strided_slice/stack_2", "op": "Const", "attr": {"value": {"tensor": {"dtype": "DT_INT32", "tensorShape": {"dim": [{"size": "1"}]}}}, "dtype": {"type": "DT_INT32"}}}, {"name": "StatefulPartitionedCall/sequential/bidirectional/forward_lstm/PartitionedCall/while/loop_counter", "op": "Const", "attr": {"value": {"tensor": {"dtype": "DT_INT32", "tensorShape": {}}}, "dtype": {"type": "DT_INT32"}}}, {"name": "StatefulPartitionedCall/sequential/bidirectional/forward_lstm/PartitionedCall/TensorArrayV2Stack/TensorListStack/element_shape", "op": "Const", "attr": {"value": {"tensor": {"dtype": "DT_INT32", "tensorShape": {"dim": [{"size": "2"}]}}}, "dtype": {"type": "DT_INT32"}}}, {"name": "StatefulPartitionedCall/sequential/bidirectional/forward_lstm/PartitionedCall/transpose_1/perm", "op": "Const", "attr": {"value": {"tensor": {"dtype": "DT_INT32", "tensorShape": {"dim": [{"size": "3"}]}}}, "dtype": {"type": "DT_INT32"}}}, {"name": "StatefulPartitionedCall/sequential/bidirectional/backward_lstm/PartitionedCall/TensorArrayV2_1/element_shape", "op": "Const", "attr": {"dtype": {"type": "DT_INT32"}, "value": {"tensor": {"dtype": "DT_INT32", "tensorShape": {"dim": [{"size": "2"}]}}}}}, {"name": "StatefulPartitionedCall/sequential/bidirectional/backward_lstm/zeros_1/packed/1", "op": "Const", "attr": {"value": {"tensor": {"dtype": "DT_INT32", "tensorShape": {}}}, "dtype": {"type": "DT_INT32"}}}, {"name": "StatefulPartitionedCall/sequential/bidirectional/backward_lstm/zeros_1/Const", "op": "Const", "attr": {"dtype": {"type": "DT_FLOAT"}, "value": {"tensor": {"dtype": "DT_FLOAT", "tensorShape": {}}}}}, {"name": "StatefulPartitionedCall/sequential/bidirectional/backward_lstm/PartitionedCall/ReverseV2/axis", "op": "Const", "attr": {"value": {"tensor": {"dtype": "DT_INT32", "tensorShape": {"dim": [{"size": "1"}]}}}, "dtype": {"type": "DT_INT32"}}}, {"name": "StatefulPartitionedCall/sequential/bidirectional/backward_lstm/PartitionedCall/TensorArrayUnstack/TensorListFromTensor/element_shape", "op": "Const", "attr": {"dtype": {"type": "DT_INT32"}, "value": {"tensor": {"dtype": "DT_INT32", "tensorShape": {"dim": [{"size": "2"}]}}}}}, {"name": "StatefulPartitionedCall/sequential/bidirectional/backward_lstm/Read/ReadVariableOp", "op": "Const", "attr": {"value": {"tensor": {"dtype": "DT_FLOAT", "tensorShape": {"dim": [{"size": "256"}, {"size": "512"}]}}}, "dtype": {"type": "DT_FLOAT"}}}, {"name": "StatefulPartitionedCall/sequential/bidirectional/backward_lstm/strided_slice/stack", "op": "Const", "attr": {"value": {"tensor": {"dtype": "DT_INT32", "tensorShape": {"dim": [{"size": "1"}]}}}, "dtype": {"type": "DT_INT32"}}}, {"name": "StatefulPartitionedCall/sequential/bidirectional/backward_lstm/strided_slice/stack_1", "op": "Const", "attr": {"dtype": {"type": "DT_INT32"}, "value": {"tensor": {"dtype": "DT_INT32", "tensorShape": {"dim": [{"size": "1"}]}}}}}, {"name": "StatefulPartitionedCall/sequential/bidirectional/backward_lstm/strided_slice/stack_2", "op": "Const", "attr": {"value": {"tensor": {"dtype": "DT_INT32", "tensorShape": {"dim": [{"size": "1"}]}}}, "dtype": {"type": "DT_INT32"}}}, {"name": "StatefulPartitionedCall/sequential/bidirectional/backward_lstm/zeros/packed/1", "op": "Const", "attr": {"value": {"tensor": {"dtype": "DT_INT32", "tensorShape": {}}}, "dtype": {"type": "DT_INT32"}}}, {"name": "StatefulPartitionedCall/sequential/bidirectional/backward_lstm/zeros/Const", "op": "Const", "attr": {"value": {"tensor": {"dtype": "DT_FLOAT", "tensorShape": {}}}, "dtype": {"type": "DT_FLOAT"}}}, {"name": "StatefulPartitionedCall/sequential/bidirectional/backward_lstm/Read_1/ReadVariableOp", "op": "Const", "attr": {"dtype": {"type": "DT_FLOAT"}, "value": {"tensor": {"dtype": "DT_FLOAT", "tensorShape": {"dim": [{"size": "128"}, {"size": "512"}]}}}}}, {"name": "StatefulPartitionedCall/sequential/bidirectional/backward_lstm/Read_2/ReadVariableOp", "op": "Const", "attr": {"value": {"tensor": {"dtype": "DT_FLOAT", "tensorShape": {"dim": [{"size": "512"}]}}}, "dtype": {"type": "DT_FLOAT"}}}, {"name": "StatefulPartitionedCall/sequential/bidirectional/backward_lstm/PartitionedCall/time", "op": "Const", "attr": {"dtype": {"type": "DT_INT32"}, "value": {"tensor": {"dtype": "DT_INT32", "tensorShape": {}}}}}, {"name": "StatefulPartitionedCall/sequential/conv1d/Conv1D/ExpandDims/dim", "op": "Const", "attr": {"dtype": {"type": "DT_INT32"}, "value": {"tensor": {"dtype": "DT_INT32", "tensorShape": {}}}}}, {"name": "StatefulPartitionedCall/sequential/conv1d/Conv1D/ExpandDims_1", "op": "Const", "attr": {"dtype": {"type": "DT_FLOAT"}, "value": {"tensor": {"dtype": "DT_FLOAT", "tensorShape": {"dim": [{"size": "1"}, {"size": "3"}, {"size": "94"}, {"size": "64"}]}}}}}, {"name": "StatefulPartitionedCall/sequential/conv1d/BiasAdd/ReadVariableOp", "op": "Const", "attr": {"value": {"tensor": {"dtype": "DT_FLOAT", "tensorShape": {"dim": [{"size": "64"}]}}}, "dtype": {"type": "DT_FLOAT"}}}, {"name": "StatefulPartitionedCall/sequential/batch_normalization/batchnorm/mul", "op": "Const", "attr": {"value": {"tensor": {"dtype": "DT_FLOAT", "tensorShape": {"dim": [{"size": "64"}]}}}, "dtype": {"type": "DT_FLOAT"}}}, {"name": "StatefulPartitionedCall/sequential/batch_normalization/batchnorm/sub", "op": "Const", "attr": {"dtype": {"type": "DT_FLOAT"}, "value": {"tensor": {"dtype": "DT_FLOAT", "tensorShape": {"dim": [{"size": "64"}]}}}}}, {"name": "StatefulPartitionedCall/sequential/max_pooling1d/ExpandDims/dim", "op": "Const", "attr": {"value": {"tensor": {"dtype": "DT_INT32", "tensorShape": {}}}, "dtype": {"type": "DT_INT32"}}}, {"name": "StatefulPartitionedCall/sequential/conv1d_1/Conv1D/ExpandDims/dim", "op": "Const", "attr": {"value": {"tensor": {"dtype": "DT_INT32", "tensorShape": {}}}, "dtype": {"type": "DT_INT32"}}}, {"name": "StatefulPartitionedCall/sequential/conv1d_1/Conv1D/ExpandDims_1", "op": "Const", "attr": {"dtype": {"type": "DT_FLOAT"}, "value": {"tensor": {"dtype": "DT_FLOAT", "tensorShape": {"dim": [{"size": "1"}, {"size": "3"}, {"size": "64"}, {"size": "128"}]}}}}}, {"name": "StatefulPartitionedCall/sequential/conv1d_1/BiasAdd/ReadVariableOp", "op": "Const", "attr": {"value": {"tensor": {"dtype": "DT_FLOAT", "tensorShape": {"dim": [{"size": "128"}]}}}, "dtype": {"type": "DT_FLOAT"}}}, {"name": "StatefulPartitionedCall/sequential/batch_normalization_1/batchnorm/mul", "op": "Const", "attr": {"dtype": {"type": "DT_FLOAT"}, "value": {"tensor": {"dtype": "DT_FLOAT", "tensorShape": {"dim": [{"size": "128"}]}}}}}, {"name": "StatefulPartitionedCall/sequential/batch_normalization_1/batchnorm/sub", "op": "Const", "attr": {"dtype": {"type": "DT_FLOAT"}, "value": {"tensor": {"dtype": "DT_FLOAT", "tensorShape": {"dim": [{"size": "128"}]}}}}}, {"name": "StatefulPartitionedCall/sequential/max_pooling1d_1/ExpandDims/dim", "op": "Const", "attr": {"dtype": {"type": "DT_INT32"}, "value": {"tensor": {"dtype": "DT_INT32", "tensorShape": {}}}}}, {"name": "StatefulPartitionedCall/sequential/conv1d_2/Conv1D/ExpandDims/dim", "op": "Const", "attr": {"dtype": {"type": "DT_INT32"}, "value": {"tensor": {"dtype": "DT_INT32", "tensorShape": {}}}}}, {"name": "StatefulPartitionedCall/sequential/conv1d_2/Conv1D/ExpandDims_1", "op": "Const", "attr": {"value": {"tensor": {"dtype": "DT_FLOAT", "tensorShape": {"dim": [{"size": "1"}, {"size": "3"}, {"size": "128"}, {"size": "256"}]}}}, "dtype": {"type": "DT_FLOAT"}}}, {"name": "StatefulPartitionedCall/sequential/conv1d_2/BiasAdd/ReadVariableOp", "op": "Const", "attr": {"value": {"tensor": {"dtype": "DT_FLOAT", "tensorShape": {"dim": [{"size": "256"}]}}}, "dtype": {"type": "DT_FLOAT"}}}, {"name": "StatefulPartitionedCall/sequential/batch_normalization_2/batchnorm/mul", "op": "Const", "attr": {"value": {"tensor": {"dtype": "DT_FLOAT", "tensorShape": {"dim": [{"size": "256"}]}}}, "dtype": {"type": "DT_FLOAT"}}}, {"name": "StatefulPartitionedCall/sequential/batch_normalization_2/batchnorm/sub", "op": "Const", "attr": {"value": {"tensor": {"dtype": "DT_FLOAT", "tensorShape": {"dim": [{"size": "256"}]}}}, "dtype": {"type": "DT_FLOAT"}}}, {"name": "StatefulPartitionedCall/sequential/max_pooling1d_2/ExpandDims/dim", "op": "Const", "attr": {"dtype": {"type": "DT_INT32"}, "value": {"tensor": {"dtype": "DT_INT32", "tensorShape": {}}}}}, {"name": "StatefulPartitionedCall/sequential/bidirectional/backward_lstm/PartitionedCall/transpose/perm", "op": "Const", "attr": {"value": {"tensor": {"dtype": "DT_INT32", "tensorShape": {"dim": [{"size": "3"}]}}}, "dtype": {"type": "DT_INT32"}}}, {"name": "StatefulPartitionedCall/sequential/bidirectional/backward_lstm/PartitionedCall/strided_slice/stack", "op": "Const", "attr": {"dtype": {"type": "DT_INT32"}, "value": {"tensor": {"dtype": "DT_INT32", "tensorShape": {"dim": [{"size": "1"}]}}}}}, {"name": "StatefulPartitionedCall/sequential/bidirectional/backward_lstm/PartitionedCall/strided_slice/stack_1", "op": "Const", "attr": {"value": {"tensor": {"dtype": "DT_INT32", "tensorShape": {"dim": [{"size": "1"}]}}}, "dtype": {"type": "DT_INT32"}}}, {"name": "StatefulPartitionedCall/sequential/bidirectional/backward_lstm/PartitionedCall/strided_slice/stack_2", "op": "Const", "attr": {"value": {"tensor": {"dtype": "DT_INT32", "tensorShape": {"dim": [{"size": "1"}]}}}, "dtype": {"type": "DT_INT32"}}}, {"name": "StatefulPartitionedCall/sequential/bidirectional/backward_lstm/PartitionedCall/while/loop_counter", "op": "Const", "attr": {"dtype": {"type": "DT_INT32"}, "value": {"tensor": {"dtype": "DT_INT32", "tensorShape": {}}}}}, {"name": "StatefulPartitionedCall/sequential/bidirectional/backward_lstm/PartitionedCall/TensorArrayV2Stack/TensorListStack/element_shape", "op": "Const", "attr": {"value": {"tensor": {"dtype": "DT_INT32", "tensorShape": {"dim": [{"size": "2"}]}}}, "dtype": {"type": "DT_INT32"}}}, {"name": "StatefulPartitionedCall/sequential/bidirectional/backward_lstm/PartitionedCall/transpose_1/perm", "op": "Const", "attr": {"value": {"tensor": {"dtype": "DT_INT32", "tensorShape": {"dim": [{"size": "3"}]}}}, "dtype": {"type": "DT_INT32"}}}, {"name": "StatefulPartitionedCall/sequential/bidirectional/ReverseV2/axis", "op": "Const", "attr": {"dtype": {"type": "DT_INT32"}, "value": {"tensor": {"dtype": "DT_INT32", "tensorShape": {"dim": [{"size": "1"}]}}}}}, {"name": "StatefulPartitionedCall/sequential/bidirectional/concat/axis", "op": "Const", "attr": {"value": {"tensor": {"dtype": "DT_INT32", "tensorShape": {}}}, "dtype": {"type": "DT_INT32"}}}, {"name": "StatefulPartitionedCall/sequential/batch_normalization_3/batchnorm/mul", "op": "Const", "attr": {"value": {"tensor": {"dtype": "DT_FLOAT", "tensorShape": {"dim": [{"size": "256"}]}}}, "dtype": {"type": "DT_FLOAT"}}}, {"name": "StatefulPartitionedCall/sequential/batch_normalization_3/batchnorm/sub", "op": "Const", "attr": {"dtype": {"type": "DT_FLOAT"}, "value": {"tensor": {"dtype": "DT_FLOAT", "tensorShape": {"dim": [{"size": "256"}]}}}}}, {"name": "StatefulPartitionedCall/sequential/bidirectional_1/backward_lstm_1/PartitionedCall/transpose/perm", "op": "Const", "attr": {"dtype": {"type": "DT_INT32"}, "value": {"tensor": {"dtype": "DT_INT32", "tensorShape": {"dim": [{"size": "3"}]}}}}}, {"name": "StatefulPartitionedCall/sequential/bidirectional_1/backward_lstm_1/PartitionedCall/strided_slice/stack", "op": "Const", "attr": {"dtype": {"type": "DT_INT32"}, "value": {"tensor": {"dtype": "DT_INT32", "tensorShape": {"dim": [{"size": "1"}]}}}}}, {"name": "StatefulPartitionedCall/sequential/bidirectional_1/backward_lstm_1/PartitionedCall/strided_slice/stack_1", "op": "Const", "attr": {"value": {"tensor": {"dtype": "DT_INT32", "tensorShape": {"dim": [{"size": "1"}]}}}, "dtype": {"type": "DT_INT32"}}}, {"name": "StatefulPartitionedCall/sequential/bidirectional_1/backward_lstm_1/PartitionedCall/strided_slice/stack_2", "op": "Const", "attr": {"value": {"tensor": {"dtype": "DT_INT32", "tensorShape": {"dim": [{"size": "1"}]}}}, "dtype": {"type": "DT_INT32"}}}, {"name": "StatefulPartitionedCall/sequential/bidirectional_1/backward_lstm_1/PartitionedCall/while/loop_counter", "op": "Const", "attr": {"value": {"tensor": {"dtype": "DT_INT32", "tensorShape": {}}}, "dtype": {"type": "DT_INT32"}}}, {"name": "StatefulPartitionedCall/sequential/bidirectional_1/backward_lstm_1/PartitionedCall/TensorArrayV2Stack/TensorListStack/element_shape", "op": "Const", "attr": {"dtype": {"type": "DT_INT32"}, "value": {"tensor": {"dtype": "DT_INT32", "tensorShape": {"dim": [{"size": "2"}]}}}}}, {"name": "StatefulPartitionedCall/sequential/bidirectional_1/backward_lstm_1/PartitionedCall/transpose_1/perm", "op": "Const", "attr": {"dtype": {"type": "DT_INT32"}, "value": {"tensor": {"dtype": "DT_INT32", "tensorShape": {"dim": [{"size": "3"}]}}}}}, {"name": "StatefulPartitionedCall/sequential/bidirectional_1/ReverseV2/axis", "op": "Const", "attr": {"dtype": {"type": "DT_INT32"}, "value": {"tensor": {"dtype": "DT_INT32", "tensorShape": {"dim": [{"size": "1"}]}}}}}, {"name": "StatefulPartitionedCall/sequential/bidirectional_1/concat/axis", "op": "Const", "attr": {"dtype": {"type": "DT_INT32"}, "value": {"tensor": {"dtype": "DT_INT32", "tensorShape": {}}}}}, {"name": "StatefulPartitionedCall/sequential/batch_normalization_4/batchnorm/mul", "op": "Const", "attr": {"value": {"tensor": {"dtype": "DT_FLOAT", "tensorShape": {"dim": [{"size": "512"}]}}}, "dtype": {"type": "DT_FLOAT"}}}, {"name": "StatefulPartitionedCall/sequential/batch_normalization_4/batchnorm/sub", "op": "Const", "attr": {"value": {"tensor": {"dtype": "DT_FLOAT", "tensorShape": {"dim": [{"size": "512"}]}}}, "dtype": {"type": "DT_FLOAT"}}}, {"name": "StatefulPartitionedCall/sequential/bidirectional_2/backward_lstm_2/PartitionedCall/transpose/perm", "op": "Const", "attr": {"value": {"tensor": {"dtype": "DT_INT32", "tensorShape": {"dim": [{"size": "3"}]}}}, "dtype": {"type": "DT_INT32"}}}, {"name": "StatefulPartitionedCall/sequential/bidirectional_2/backward_lstm_2/PartitionedCall/strided_slice/stack", "op": "Const", "attr": {"value": {"tensor": {"dtype": "DT_INT32", "tensorShape": {"dim": [{"size": "1"}]}}}, "dtype": {"type": "DT_INT32"}}}, {"name": "StatefulPartitionedCall/sequential/bidirectional_2/backward_lstm_2/PartitionedCall/strided_slice/stack_1", "op": "Const", "attr": {"value": {"tensor": {"dtype": "DT_INT32", "tensorShape": {"dim": [{"size": "1"}]}}}, "dtype": {"type": "DT_INT32"}}}, {"name": "StatefulPartitionedCall/sequential/bidirectional_2/backward_lstm_2/PartitionedCall/strided_slice/stack_2", "op": "Const", "attr": {"dtype": {"type": "DT_INT32"}, "value": {"tensor": {"dtype": "DT_INT32", "tensorShape": {"dim": [{"size": "1"}]}}}}}, {"name": "StatefulPartitionedCall/sequential/bidirectional_2/backward_lstm_2/PartitionedCall/while/loop_counter", "op": "Const", "attr": {"value": {"tensor": {"dtype": "DT_INT32", "tensorShape": {}}}, "dtype": {"type": "DT_INT32"}}}, {"name": "StatefulPartitionedCall/sequential/bidirectional_2/backward_lstm_2/PartitionedCall/TensorArrayV2Stack/TensorListStack/element_shape", "op": "Const", "attr": {"dtype": {"type": "DT_INT32"}, "value": {"tensor": {"dtype": "DT_INT32", "tensorShape": {"dim": [{"size": "2"}]}}}}}, {"name": "StatefulPartitionedCall/sequential/bidirectional_2/backward_lstm_2/PartitionedCall/strided_slice_2/stack", "op": "Const", "attr": {"dtype": {"type": "DT_INT32"}, "value": {"tensor": {"dtype": "DT_INT32", "tensorShape": {"dim": [{"size": "1"}]}}}}}, {"name": "StatefulPartitionedCall/sequential/bidirectional_2/backward_lstm_2/PartitionedCall/strided_slice_2/stack_1", "op": "Const", "attr": {"dtype": {"type": "DT_INT32"}, "value": {"tensor": {"dtype": "DT_INT32", "tensorShape": {"dim": [{"size": "1"}]}}}}}, {"name": "StatefulPartitionedCall/sequential/bidirectional_2/backward_lstm_2/PartitionedCall/strided_slice_2/stack_2", "op": "Const", "attr": {"value": {"tensor": {"dtype": "DT_INT32", "tensorShape": {"dim": [{"size": "1"}]}}}, "dtype": {"type": "DT_INT32"}}}, {"name": "StatefulPartitionedCall/sequential/bidirectional_2/concat/axis", "op": "Const", "attr": {"value": {"tensor": {"dtype": "DT_INT32", "tensorShape": {}}}, "dtype": {"type": "DT_INT32"}}}, {"name": "StatefulPartitionedCall/sequential/batch_normalization_5/batchnorm/mul", "op": "Const", "attr": {"dtype": {"type": "DT_FLOAT"}, "value": {"tensor": {"dtype": "DT_FLOAT", "tensorShape": {"dim": [{"size": "1024"}]}}}}}, {"name": "StatefulPartitionedCall/sequential/batch_normalization_5/batchnorm/sub", "op": "Const", "attr": {"value": {"tensor": {"dtype": "DT_FLOAT", "tensorShape": {"dim": [{"size": "1024"}]}}}, "dtype": {"type": "DT_FLOAT"}}}, {"name": "StatefulPartitionedCall/sequential/dense/MatMul/ReadVariableOp", "op": "Const", "attr": {"value": {"tensor": {"dtype": "DT_FLOAT", "tensorShape": {"dim": [{"size": "1024"}, {"size": "1024"}]}}}, "dtype": {"type": "DT_FLOAT"}}}, {"name": "StatefulPartitionedCall/sequential/dense/BiasAdd/ReadVariableOp", "op": "Const", "attr": {"dtype": {"type": "DT_FLOAT"}, "value": {"tensor": {"dtype": "DT_FLOAT", "tensorShape": {"dim": [{"size": "1024"}]}}}}}, {"name": "StatefulPartitionedCall/sequential/batch_normalization_6/batchnorm/mul", "op": "Const", "attr": {"dtype": {"type": "DT_FLOAT"}, "value": {"tensor": {"dtype": "DT_FLOAT", "tensorShape": {"dim": [{"size": "1024"}]}}}}}, {"name": "StatefulPartitionedCall/sequential/batch_normalization_6/batchnorm/sub", "op": "Const", "attr": {"dtype": {"type": "DT_FLOAT"}, "value": {"tensor": {"dtype": "DT_FLOAT", "tensorShape": {"dim": [{"size": "1024"}]}}}}}, {"name": "StatefulPartitionedCall/sequential/dense_1/MatMul/ReadVariableOp", "op": "Const", "attr": {"dtype": {"type": "DT_FLOAT"}, "value": {"tensor": {"dtype": "DT_FLOAT", "tensorShape": {"dim": [{"size": "1024"}, {"size": "512"}]}}}}}, {"name": "StatefulPartitionedCall/sequential/dense_1/BiasAdd/ReadVariableOp", "op": "Const", "attr": {"dtype": {"type": "DT_FLOAT"}, "value": {"tensor": {"dtype": "DT_FLOAT", "tensorShape": {"dim": [{"size": "512"}]}}}}}, {"name": "StatefulPartitionedCall/sequential/batch_normalization_7/batchnorm/mul", "op": "Const", "attr": {"dtype": {"type": "DT_FLOAT"}, "value": {"tensor": {"dtype": "DT_FLOAT", "tensorShape": {"dim": [{"size": "512"}]}}}}}, {"name": "StatefulPartitionedCall/sequential/batch_normalization_7/batchnorm/sub", "op": "Const", "attr": {"value": {"tensor": {"dtype": "DT_FLOAT", "tensorShape": {"dim": [{"size": "512"}]}}}, "dtype": {"type": "DT_FLOAT"}}}, {"name": "StatefulPartitionedCall/sequential/dense_2/MatMul/ReadVariableOp", "op": "Const", "attr": {"dtype": {"type": "DT_FLOAT"}, "value": {"tensor": {"dtype": "DT_FLOAT", "tensorShape": {"dim": [{"size": "512"}, {"size": "256"}]}}}}}, {"name": "StatefulPartitionedCall/sequential/dense_2/BiasAdd/ReadVariableOp", "op": "Const", "attr": {"dtype": {"type": "DT_FLOAT"}, "value": {"tensor": {"dtype": "DT_FLOAT", "tensorShape": {"dim": [{"size": "256"}]}}}}}, {"name": "StatefulPartitionedCall/sequential/batch_normalization_8/batchnorm/mul", "op": "Const", "attr": {"dtype": {"type": "DT_FLOAT"}, "value": {"tensor": {"dtype": "DT_FLOAT", "tensorShape": {"dim": [{"size": "256"}]}}}}}, {"name": "StatefulPartitionedCall/sequential/batch_normalization_8/batchnorm/sub", "op": "Const", "attr": {"value": {"tensor": {"dtype": "DT_FLOAT", "tensorShape": {"dim": [{"size": "256"}]}}}, "dtype": {"type": "DT_FLOAT"}}}, {"name": "StatefulPartitionedCall/sequential/dense_3/MatMul/ReadVariableOp", "op": "Const", "attr": {"value": {"tensor": {"dtype": "DT_FLOAT", "tensorShape": {"dim": [{"size": "256"}, {"size": "6"}]}}}, "dtype": {"type": "DT_FLOAT"}}}, {"name": "StatefulPartitionedCall/sequential/dense_3/BiasAdd/ReadVariableOp", "op": "Const", "attr": {"value": {"tensor": {"dtype": "DT_FLOAT", "tensorShape": {"dim": [{"size": "6"}]}}}, "dtype": {"type": "DT_FLOAT"}}}, {"name": "input_1", "op": "Placeholder", "attr": {"shape": {"shape": {"dim": [{"size": "-1"}, {"size": "15"}, {"size": "94"}]}}, "dtype": {"type": "DT_FLOAT"}}}, {"name": "StatefulPartitionedCall/sequential/bidirectional_2/forward_lstm_2/PartitionedCall/TensorArrayV2_1", "op": "TensorListReserve", "input": ["StatefulPartitionedCall/sequential/bidirectional_2/forward_lstm_2/PartitionedCall/TensorArrayV2_1/element_shape", "StatefulPartitionedCall/sequential/bidirectional_2/forward_lstm_2/PartitionedCall/TensorArrayV2_1/num_elements"], "attr": {"element_dtype": {"type": "DT_FLOAT"}, "shape_type": {"type": "DT_INT32"}}, "experimentalType": {"typeId": "TFT_PRODUCT", "args": [{"typeId": "TFT_ARRAY", "args": [{"typeId": "TFT_TENSOR", "args": [{"typeId": "TFT_FLOAT"}]}]}]}}, {"name": "StatefulPartitionedCall/sequential/bidirectional_2/forward_lstm_2/PartitionedCall/while/enter/_387", "op": "Enter", "input": ["StatefulPartitionedCall/sequential/bidirectional_2/forward_lstm_2/Read/ReadVariableOp"], "attr": {"T": {"type": "DT_FLOAT"}, "frame_name": {"s": "U3RhdGVmdWxQYXJ0aXRpb25lZENhbGwvc2VxdWVudGlhbC9iaWRpcmVjdGlvbmFsXzIvZm9yd2FyZF9sc3RtXzIvUGFydGl0aW9uZWRDYWxsL3doaWxl"}, "parallel_iterations": {"i": "32"}, "is_constant": {"b": false}}}, {"name": "StatefulPartitionedCall/sequential/bidirectional_2/forward_lstm_2/PartitionedCall/while/enter/_388", "op": "Enter", "input": ["StatefulPartitionedCall/sequential/bidirectional_2/forward_lstm_2/Read_1/ReadVariableOp"], "attr": {"frame_name": {"s": "U3RhdGVmdWxQYXJ0aXRpb25lZENhbGwvc2VxdWVudGlhbC9iaWRpcmVjdGlvbmFsXzIvZm9yd2FyZF9sc3RtXzIvUGFydGl0aW9uZWRDYWxsL3doaWxl"}, "parallel_iterations": {"i": "32"}, "is_constant": {"b": false}, "T": {"type": "DT_FLOAT"}}}, {"name": "StatefulPartitionedCall/sequential/bidirectional_2/forward_lstm_2/PartitionedCall/while/enter/_389", "op": "Enter", "input": ["StatefulPartitionedCall/sequential/bidirectional_2/forward_lstm_2/Read_2/ReadVariableOp"], "attr": {"T": {"type": "DT_FLOAT"}, "parallel_iterations": {"i": "32"}, "frame_name": {"s": "U3RhdGVmdWxQYXJ0aXRpb25lZENhbGwvc2VxdWVudGlhbC9iaWRpcmVjdGlvbmFsXzIvZm9yd2FyZF9sc3RtXzIvUGFydGl0aW9uZWRDYWxsL3doaWxl"}, "is_constant": {"b": false}}}, {"name": "StatefulPartitionedCall/sequential/bidirectional_2/forward_lstm_2/PartitionedCall/while/enter/_381", "op": "Enter", "input": ["StatefulPartitionedCall/sequential/bidirectional_2/forward_lstm_2/PartitionedCall/time"], "attr": {"frame_name": {"s": "U3RhdGVmdWxQYXJ0aXRpb25lZENhbGwvc2VxdWVudGlhbC9iaWRpcmVjdGlvbmFsXzIvZm9yd2FyZF9sc3RtXzIvUGFydGl0aW9uZWRDYWxsL3doaWxl"}, "parallel_iterations": {"i": "32"}, "is_constant": {"b": false}, "T": {"type": "DT_INT32"}}}, {"name": "StatefulPartitionedCall/sequential/bidirectional_2/forward_lstm_2/PartitionedCall/while/enter/_379", "op": "Enter", "input": ["StatefulPartitionedCall/sequential/bidirectional_2/forward_lstm_2/PartitionedCall/while/loop_counter"], "attr": {"T": {"type": "DT_INT32"}, "is_constant": {"b": false}, "frame_name": {"s": "U3RhdGVmdWxQYXJ0aXRpb25lZENhbGwvc2VxdWVudGlhbC9iaWRpcmVjdGlvbmFsXzIvZm9yd2FyZF9sc3RtXzIvUGFydGl0aW9uZWRDYWxsL3doaWxl"}, "parallel_iterations": {"i": "32"}}}, {"name": "StatefulPartitionedCall/sequential/bidirectional_2/backward_lstm_2/PartitionedCall/TensorArrayV2_1", "op": "TensorListReserve", "input": ["StatefulPartitionedCall/sequential/bidirectional_2/backward_lstm_2/PartitionedCall/TensorArrayV2_1/element_shape", "StatefulPartitionedCall/sequential/bidirectional_2/backward_lstm_2/PartitionedCall/TensorArrayV2_1/num_elements"], "attr": {"element_dtype": {"type": "DT_FLOAT"}, "shape_type": {"type": "DT_INT32"}}, "experimentalType": {"typeId": "TFT_PRODUCT", "args": [{"typeId": "TFT_ARRAY", "args": [{"typeId": "TFT_TENSOR", "args": [{"typeId": "TFT_FLOAT"}]}]}]}}, {"name": "StatefulPartitionedCall/sequential/bidirectional_2/backward_lstm_2/PartitionedCall/while/enter/_447", "op": "Enter", "input": ["StatefulPartitionedCall/sequential/bidirectional_2/backward_lstm_2/Read/ReadVariableOp"], "attr": {"is_constant": {"b": false}, "frame_name": {"s": "U3RhdGVmdWxQYXJ0aXRpb25lZENhbGwvc2VxdWVudGlhbC9iaWRpcmVjdGlvbmFsXzIvYmFja3dhcmRfbHN0bV8yL1BhcnRpdGlvbmVkQ2FsbC93aGlsZQ=="}, "parallel_iterations": {"i": "32"}, "T": {"type": "DT_FLOAT"}}}, {"name": "StatefulPartitionedCall/sequential/bidirectional_2/backward_lstm_2/PartitionedCall/while/enter/_448", "op": "Enter", "input": ["StatefulPartitionedCall/sequential/bidirectional_2/backward_lstm_2/Read_1/ReadVariableOp"], "attr": {"parallel_iterations": {"i": "32"}, "frame_name": {"s": "U3RhdGVmdWxQYXJ0aXRpb25lZENhbGwvc2VxdWVudGlhbC9iaWRpcmVjdGlvbmFsXzIvYmFja3dhcmRfbHN0bV8yL1BhcnRpdGlvbmVkQ2FsbC93aGlsZQ=="}, "is_constant": {"b": false}, "T": {"type": "DT_FLOAT"}}}, {"name": "StatefulPartitionedCall/sequential/bidirectional_2/backward_lstm_2/PartitionedCall/while/enter/_449", "op": "Enter", "input": ["StatefulPartitionedCall/sequential/bidirectional_2/backward_lstm_2/Read_2/ReadVariableOp"], "attr": {"parallel_iterations": {"i": "32"}, "T": {"type": "DT_FLOAT"}, "frame_name": {"s": "U3RhdGVmdWxQYXJ0aXRpb25lZENhbGwvc2VxdWVudGlhbC9iaWRpcmVjdGlvbmFsXzIvYmFja3dhcmRfbHN0bV8yL1BhcnRpdGlvbmVkQ2FsbC93aGlsZQ=="}, "is_constant": {"b": false}}}, {"name": "StatefulPartitionedCall/sequential/bidirectional_2/backward_lstm_2/PartitionedCall/while/enter/_441", "op": "Enter", "input": ["StatefulPartitionedCall/sequential/bidirectional_2/backward_lstm_2/PartitionedCall/time"], "attr": {"is_constant": {"b": false}, "frame_name": {"s": "U3RhdGVmdWxQYXJ0aXRpb25lZENhbGwvc2VxdWVudGlhbC9iaWRpcmVjdGlvbmFsXzIvYmFja3dhcmRfbHN0bV8yL1BhcnRpdGlvbmVkQ2FsbC93aGlsZQ=="}, "T": {"type": "DT_INT32"}, "parallel_iterations": {"i": "32"}}}, {"name": "StatefulPartitionedCall/sequential/bidirectional_1/forward_lstm_1/PartitionedCall/while/enter/_267", "op": "Enter", "input": ["StatefulPartitionedCall/sequential/bidirectional_1/forward_lstm_1/Read/ReadVariableOp"], "attr": {"is_constant": {"b": false}, "T": {"type": "DT_FLOAT"}, "frame_name": {"s": "U3RhdGVmdWxQYXJ0aXRpb25lZENhbGwvc2VxdWVudGlhbC9iaWRpcmVjdGlvbmFsXzEvZm9yd2FyZF9sc3RtXzEvUGFydGl0aW9uZWRDYWxsL3doaWxl"}, "parallel_iterations": {"i": "32"}}}, {"name": "StatefulPartitionedCall/sequential/bidirectional_1/forward_lstm_1/PartitionedCall/while/enter/_268", "op": "Enter", "input": ["StatefulPartitionedCall/sequential/bidirectional_1/forward_lstm_1/Read_1/ReadVariableOp"], "attr": {"parallel_iterations": {"i": "32"}, "is_constant": {"b": false}, "frame_name": {"s": "U3RhdGVmdWxQYXJ0aXRpb25lZENhbGwvc2VxdWVudGlhbC9iaWRpcmVjdGlvbmFsXzEvZm9yd2FyZF9sc3RtXzEvUGFydGl0aW9uZWRDYWxsL3doaWxl"}, "T": {"type": "DT_FLOAT"}}}, {"name": "StatefulPartitionedCall/sequential/bidirectional_1/forward_lstm_1/PartitionedCall/while/enter/_269", "op": "Enter", "input": ["StatefulPartitionedCall/sequential/bidirectional_1/forward_lstm_1/Read_2/ReadVariableOp"], "attr": {"parallel_iterations": {"i": "32"}, "is_constant": {"b": false}, "frame_name": {"s": "U3RhdGVmdWxQYXJ0aXRpb25lZENhbGwvc2VxdWVudGlhbC9iaWRpcmVjdGlvbmFsXzEvZm9yd2FyZF9sc3RtXzEvUGFydGl0aW9uZWRDYWxsL3doaWxl"}, "T": {"type": "DT_FLOAT"}}}, {"name": "StatefulPartitionedCall/sequential/bidirectional_1/forward_lstm_1/PartitionedCall/while/enter/_261", "op": "Enter", "input": ["StatefulPartitionedCall/sequential/bidirectional_1/forward_lstm_1/PartitionedCall/time"], "attr": {"parallel_iterations": {"i": "32"}, "frame_name": {"s": "U3RhdGVmdWxQYXJ0aXRpb25lZENhbGwvc2VxdWVudGlhbC9iaWRpcmVjdGlvbmFsXzEvZm9yd2FyZF9sc3RtXzEvUGFydGl0aW9uZWRDYWxsL3doaWxl"}, "is_constant": {"b": false}, "T": {"type": "DT_INT32"}}}, {"name": "StatefulPartitionedCall/sequential/bidirectional_1/forward_lstm_1/PartitionedCall/while/enter/_259", "op": "Enter", "input": ["StatefulPartitionedCall/sequential/bidirectional_1/forward_lstm_1/PartitionedCall/while/loop_counter"], "attr": {"parallel_iterations": {"i": "32"}, "frame_name": {"s": "U3RhdGVmdWxQYXJ0aXRpb25lZENhbGwvc2VxdWVudGlhbC9iaWRpcmVjdGlvbmFsXzEvZm9yd2FyZF9sc3RtXzEvUGFydGl0aW9uZWRDYWxsL3doaWxl"}, "is_constant": {"b": false}, "T": {"type": "DT_INT32"}}}, {"name": "StatefulPartitionedCall/sequential/bidirectional_1/backward_lstm_1/PartitionedCall/while/enter/_327", "op": "Enter", "input": ["StatefulPartitionedCall/sequential/bidirectional_1/backward_lstm_1/Read/ReadVariableOp"], "attr": {"frame_name": {"s": "U3RhdGVmdWxQYXJ0aXRpb25lZENhbGwvc2VxdWVudGlhbC9iaWRpcmVjdGlvbmFsXzEvYmFja3dhcmRfbHN0bV8xL1BhcnRpdGlvbmVkQ2FsbC93aGlsZQ=="}, "is_constant": {"b": false}, "parallel_iterations": {"i": "32"}, "T": {"type": "DT_FLOAT"}}}, {"name": "StatefulPartitionedCall/sequential/bidirectional_1/backward_lstm_1/PartitionedCall/while/enter/_328", "op": "Enter", "input": ["StatefulPartitionedCall/sequential/bidirectional_1/backward_lstm_1/Read_1/ReadVariableOp"], "attr": {"T": {"type": "DT_FLOAT"}, "parallel_iterations": {"i": "32"}, "is_constant": {"b": false}, "frame_name": {"s": "U3RhdGVmdWxQYXJ0aXRpb25lZENhbGwvc2VxdWVudGlhbC9iaWRpcmVjdGlvbmFsXzEvYmFja3dhcmRfbHN0bV8xL1BhcnRpdGlvbmVkQ2FsbC93aGlsZQ=="}}}, {"name": "StatefulPartitionedCall/sequential/bidirectional_1/backward_lstm_1/PartitionedCall/while/enter/_329", "op": "Enter", "input": ["StatefulPartitionedCall/sequential/bidirectional_1/backward_lstm_1/Read_2/ReadVariableOp"], "attr": {"parallel_iterations": {"i": "32"}, "is_constant": {"b": false}, "frame_name": {"s": "U3RhdGVmdWxQYXJ0aXRpb25lZENhbGwvc2VxdWVudGlhbC9iaWRpcmVjdGlvbmFsXzEvYmFja3dhcmRfbHN0bV8xL1BhcnRpdGlvbmVkQ2FsbC93aGlsZQ=="}, "T": {"type": "DT_FLOAT"}}}, {"name": "StatefulPartitionedCall/sequential/bidirectional_1/backward_lstm_1/PartitionedCall/while/enter/_321", "op": "Enter", "input": ["StatefulPartitionedCall/sequential/bidirectional_1/backward_lstm_1/PartitionedCall/time"], "attr": {"frame_name": {"s": "U3RhdGVmdWxQYXJ0aXRpb25lZENhbGwvc2VxdWVudGlhbC9iaWRpcmVjdGlvbmFsXzEvYmFja3dhcmRfbHN0bV8xL1BhcnRpdGlvbmVkQ2FsbC93aGlsZQ=="}, "T": {"type": "DT_INT32"}, "parallel_iterations": {"i": "32"}, "is_constant": {"b": false}}}, {"name": "StatefulPartitionedCall/sequential/bidirectional/forward_lstm/PartitionedCall/while/enter/_147", "op": "Enter", "input": ["StatefulPartitionedCall/sequential/bidirectional/forward_lstm/Read/ReadVariableOp"], "attr": {"frame_name": {"s": "U3RhdGVmdWxQYXJ0aXRpb25lZENhbGwvc2VxdWVudGlhbC9iaWRpcmVjdGlvbmFsL2ZvcndhcmRfbHN0bS9QYXJ0aXRpb25lZENhbGwvd2hpbGU="}, "T": {"type": "DT_FLOAT"}, "parallel_iterations": {"i": "32"}, "is_constant": {"b": false}}}, {"name": "StatefulPartitionedCall/sequential/bidirectional/forward_lstm/PartitionedCall/while/enter/_148", "op": "Enter", "input": ["StatefulPartitionedCall/sequential/bidirectional/forward_lstm/Read_1/ReadVariableOp"], "attr": {"parallel_iterations": {"i": "32"}, "T": {"type": "DT_FLOAT"}, "frame_name": {"s": "U3RhdGVmdWxQYXJ0aXRpb25lZENhbGwvc2VxdWVudGlhbC9iaWRpcmVjdGlvbmFsL2ZvcndhcmRfbHN0bS9QYXJ0aXRpb25lZENhbGwvd2hpbGU="}, "is_constant": {"b": false}}}, {"name": "StatefulPartitionedCall/sequential/bidirectional/forward_lstm/PartitionedCall/while/enter/_149", "op": "Enter", "input": ["StatefulPartitionedCall/sequential/bidirectional/forward_lstm/Read_2/ReadVariableOp"], "attr": {"parallel_iterations": {"i": "32"}, "is_constant": {"b": false}, "frame_name": {"s": "U3RhdGVmdWxQYXJ0aXRpb25lZENhbGwvc2VxdWVudGlhbC9iaWRpcmVjdGlvbmFsL2ZvcndhcmRfbHN0bS9QYXJ0aXRpb25lZENhbGwvd2hpbGU="}, "T": {"type": "DT_FLOAT"}}}, {"name": "StatefulPartitionedCall/sequential/bidirectional/forward_lstm/PartitionedCall/while/enter/_141", "op": "Enter", "input": ["StatefulPartitionedCall/sequential/bidirectional/forward_lstm/PartitionedCall/time"], "attr": {"T": {"type": "DT_INT32"}, "is_constant": {"b": false}, "parallel_iterations": {"i": "32"}, "frame_name": {"s": "U3RhdGVmdWxQYXJ0aXRpb25lZENhbGwvc2VxdWVudGlhbC9iaWRpcmVjdGlvbmFsL2ZvcndhcmRfbHN0bS9QYXJ0aXRpb25lZENhbGwvd2hpbGU="}}}, {"name": "StatefulPartitionedCall/sequential/bidirectional/forward_lstm/PartitionedCall/while/enter/_139", "op": "Enter", "input": ["StatefulPartitionedCall/sequential/bidirectional/forward_lstm/PartitionedCall/while/loop_counter"], "attr": {"frame_name": {"s": "U3RhdGVmdWxQYXJ0aXRpb25lZENhbGwvc2VxdWVudGlhbC9iaWRpcmVjdGlvbmFsL2ZvcndhcmRfbHN0bS9QYXJ0aXRpb25lZENhbGwvd2hpbGU="}, "T": {"type": "DT_INT32"}, "parallel_iterations": {"i": "32"}, "is_constant": {"b": false}}}, {"name": "StatefulPartitionedCall/sequential/bidirectional/backward_lstm/PartitionedCall/while/enter/_207", "op": "Enter", "input": ["StatefulPartitionedCall/sequential/bidirectional/backward_lstm/Read/ReadVariableOp"], "attr": {"frame_name": {"s": "U3RhdGVmdWxQYXJ0aXRpb25lZENhbGwvc2VxdWVudGlhbC9iaWRpcmVjdGlvbmFsL2JhY2t3YXJkX2xzdG0vUGFydGl0aW9uZWRDYWxsL3doaWxl"}, "parallel_iterations": {"i": "32"}, "T": {"type": "DT_FLOAT"}, "is_constant": {"b": false}}}, {"name": "StatefulPartitionedCall/sequential/bidirectional/backward_lstm/PartitionedCall/while/enter/_208", "op": "Enter", "input": ["StatefulPartitionedCall/sequential/bidirectional/backward_lstm/Read_1/ReadVariableOp"], "attr": {"parallel_iterations": {"i": "32"}, "T": {"type": "DT_FLOAT"}, "frame_name": {"s": "U3RhdGVmdWxQYXJ0aXRpb25lZENhbGwvc2VxdWVudGlhbC9iaWRpcmVjdGlvbmFsL2JhY2t3YXJkX2xzdG0vUGFydGl0aW9uZWRDYWxsL3doaWxl"}, "is_constant": {"b": false}}}, {"name": "StatefulPartitionedCall/sequential/bidirectional/backward_lstm/PartitionedCall/while/enter/_209", "op": "Enter", "input": ["StatefulPartitionedCall/sequential/bidirectional/backward_lstm/Read_2/ReadVariableOp"], "attr": {"is_constant": {"b": false}, "parallel_iterations": {"i": "32"}, "frame_name": {"s": "U3RhdGVmdWxQYXJ0aXRpb25lZENhbGwvc2VxdWVudGlhbC9iaWRpcmVjdGlvbmFsL2JhY2t3YXJkX2xzdG0vUGFydGl0aW9uZWRDYWxsL3doaWxl"}, "T": {"type": "DT_FLOAT"}}}, {"name": "StatefulPartitionedCall/sequential/bidirectional/backward_lstm/PartitionedCall/while/enter/_201", "op": "Enter", "input": ["StatefulPartitionedCall/sequential/bidirectional/backward_lstm/PartitionedCall/time"], "attr": {"is_constant": {"b": false}, "frame_name": {"s": "U3RhdGVmdWxQYXJ0aXRpb25lZENhbGwvc2VxdWVudGlhbC9iaWRpcmVjdGlvbmFsL2JhY2t3YXJkX2xzdG0vUGFydGl0aW9uZWRDYWxsL3doaWxl"}, "parallel_iterations": {"i": "32"}, "T": {"type": "DT_INT32"}}}, {"name": "StatefulPartitionedCall/sequential/bidirectional/backward_lstm/PartitionedCall/while/enter/_199", "op": "Enter", "input": ["StatefulPartitionedCall/sequential/bidirectional/backward_lstm/PartitionedCall/while/loop_counter"], "attr": {"frame_name": {"s": "U3RhdGVmdWxQYXJ0aXRpb25lZENhbGwvc2VxdWVudGlhbC9iaWRpcmVjdGlvbmFsL2JhY2t3YXJkX2xzdG0vUGFydGl0aW9uZWRDYWxsL3doaWxl"}, "parallel_iterations": {"i": "32"}, "is_constant": {"b": false}, "T": {"type": "DT_INT32"}}}, {"name": "StatefulPartitionedCall/sequential/bidirectional_1/backward_lstm_1/PartitionedCall/while/enter/_319", "op": "Enter", "input": ["StatefulPartitionedCall/sequential/bidirectional_1/backward_lstm_1/PartitionedCall/while/loop_counter"], "attr": {"parallel_iterations": {"i": "32"}, "is_constant": {"b": false}, "frame_name": {"s": "U3RhdGVmdWxQYXJ0aXRpb25lZENhbGwvc2VxdWVudGlhbC9iaWRpcmVjdGlvbmFsXzEvYmFja3dhcmRfbHN0bV8xL1BhcnRpdGlvbmVkQ2FsbC93aGlsZQ=="}, "T": {"type": "DT_INT32"}}}, {"name": "StatefulPartitionedCall/sequential/bidirectional_2/backward_lstm_2/PartitionedCall/while/enter/_439", "op": "Enter", "input": ["StatefulPartitionedCall/sequential/bidirectional_2/backward_lstm_2/PartitionedCall/while/loop_counter"], "attr": {"frame_name": {"s": "U3RhdGVmdWxQYXJ0aXRpb25lZENhbGwvc2VxdWVudGlhbC9iaWRpcmVjdGlvbmFsXzIvYmFja3dhcmRfbHN0bV8yL1BhcnRpdGlvbmVkQ2FsbC93aGlsZQ=="}, "T": {"type": "DT_INT32"}, "parallel_iterations": {"i": "32"}, "is_constant": {"b": false}}}, {"name": "StatefulPartitionedCall/sequential/conv1d/Conv1D/ExpandDims", "op": "ExpandDims", "input": ["input_1", "StatefulPartitionedCall/sequential/conv1d/Conv1D/ExpandDims/dim"], "attr": {"T": {"type": "DT_FLOAT"}, "Tdim": {"type": "DT_INT32"}}}, {"name": "StatefulPartitionedCall/sequential/bidirectional_2/forward_lstm_2/PartitionedCall/while/enter/_382", "op": "Enter", "input": ["StatefulPartitionedCall/sequential/bidirectional_2/forward_lstm_2/PartitionedCall/TensorArrayV2_1"], "attr": {"T": {"type": "DT_VARIANT"}, "is_constant": {"b": false}, "frame_name": {"s": "U3RhdGVmdWxQYXJ0aXRpb25lZENhbGwvc2VxdWVudGlhbC9iaWRpcmVjdGlvbmFsXzIvZm9yd2FyZF9sc3RtXzIvUGFydGl0aW9uZWRDYWxsL3doaWxl"}, "parallel_iterations": {"i": "32"}}}, {"name": "StatefulPartitionedCall/sequential/bidirectional_2/forward_lstm_2/PartitionedCall/while/merge/_398", "op": "Merge", "input": ["StatefulPartitionedCall/sequential/bidirectional_2/forward_lstm_2/PartitionedCall/while/enter/_387", "StatefulPartitionedCall/sequential/bidirectional_2/forward_lstm_2/PartitionedCall/while/next_iteration/_434"], "attr": {"N": {"i": "2"}, "T": {"type": "DT_FLOAT"}}}, {"name": "StatefulPartitionedCall/sequential/bidirectional_2/forward_lstm_2/PartitionedCall/while/merge/_399", "op": "Merge", "input": ["StatefulPartitionedCall/sequential/bidirectional_2/forward_lstm_2/PartitionedCall/while/enter/_388", "StatefulPartitionedCall/sequential/bidirectional_2/forward_lstm_2/PartitionedCall/while/next_iteration/_435"], "attr": {"N": {"i": "2"}, "T": {"type": "DT_FLOAT"}}}, {"name": "StatefulPartitionedCall/sequential/bidirectional_2/forward_lstm_2/PartitionedCall/while/merge/_400", "op": "Merge", "input": ["StatefulPartitionedCall/sequential/bidirectional_2/forward_lstm_2/PartitionedCall/while/enter/_389", "StatefulPartitionedCall/sequential/bidirectional_2/forward_lstm_2/PartitionedCall/while/next_iteration/_436"], "attr": {"T": {"type": "DT_FLOAT"}, "N": {"i": "2"}}}, {"name": "StatefulPartitionedCall/sequential/bidirectional_2/forward_lstm_2/PartitionedCall/while/merge/_392", "op": "Merge", "input": ["StatefulPartitionedCall/sequential/bidirectional_2/forward_lstm_2/PartitionedCall/while/enter/_381", "StatefulPartitionedCall/sequential/bidirectional_2/forward_lstm_2/PartitionedCall/while/next_iteration/_428"], "attr": {"T": {"type": "DT_INT32"}, "N": {"i": "2"}}}, {"name": "StatefulPartitionedCall/sequential/bidirectional_2/forward_lstm_2/PartitionedCall/while/merge/_390", "op": "Merge", "input": ["StatefulPartitionedCall/sequential/bidirectional_2/forward_lstm_2/PartitionedCall/while/enter/_379", "StatefulPartitionedCall/sequential/bidirectional_2/forward_lstm_2/PartitionedCall/while/next_iteration/_426"], "attr": {"T": {"type": "DT_INT32"}, "N": {"i": "2"}}}, {"name": "StatefulPartitionedCall/sequential/bidirectional_2/backward_lstm_2/PartitionedCall/while/enter/_442", "op": "Enter", "input": ["StatefulPartitionedCall/sequential/bidirectional_2/backward_lstm_2/PartitionedCall/TensorArrayV2_1"], "attr": {"T": {"type": "DT_VARIANT"}, "parallel_iterations": {"i": "32"}, "frame_name": {"s": "U3RhdGVmdWxQYXJ0aXRpb25lZENhbGwvc2VxdWVudGlhbC9iaWRpcmVjdGlvbmFsXzIvYmFja3dhcmRfbHN0bV8yL1BhcnRpdGlvbmVkQ2FsbC93aGlsZQ=="}, "is_constant": {"b": false}}}, {"name": "StatefulPartitionedCall/sequential/bidirectional_2/backward_lstm_2/PartitionedCall/while/merge/_458", "op": "Merge", "input": ["StatefulPartitionedCall/sequential/bidirectional_2/backward_lstm_2/PartitionedCall/while/enter/_447", "StatefulPartitionedCall/sequential/bidirectional_2/backward_lstm_2/PartitionedCall/while/next_iteration/_494"], "attr": {"N": {"i": "2"}, "T": {"type": "DT_FLOAT"}}}, {"name": "StatefulPartitionedCall/sequential/bidirectional_2/backward_lstm_2/PartitionedCall/while/merge/_459", "op": "Merge", "input": ["StatefulPartitionedCall/sequential/bidirectional_2/backward_lstm_2/PartitionedCall/while/enter/_448", "StatefulPartitionedCall/sequential/bidirectional_2/backward_lstm_2/PartitionedCall/while/next_iteration/_495"], "attr": {"N": {"i": "2"}, "T": {"type": "DT_FLOAT"}}}, {"name": "StatefulPartitionedCall/sequential/bidirectional_2/backward_lstm_2/PartitionedCall/while/merge/_460", "op": "Merge", "input": ["StatefulPartitionedCall/sequential/bidirectional_2/backward_lstm_2/PartitionedCall/while/enter/_449", "StatefulPartitionedCall/sequential/bidirectional_2/backward_lstm_2/PartitionedCall/while/next_iteration/_496"], "attr": {"T": {"type": "DT_FLOAT"}, "N": {"i": "2"}}}, {"name": "StatefulPartitionedCall/sequential/bidirectional_2/backward_lstm_2/PartitionedCall/while/merge/_452", "op": "Merge", "input": ["StatefulPartitionedCall/sequential/bidirectional_2/backward_lstm_2/PartitionedCall/while/enter/_441", "StatefulPartitionedCall/sequential/bidirectional_2/backward_lstm_2/PartitionedCall/while/next_iteration/_488"], "attr": {"T": {"type": "DT_INT32"}, "N": {"i": "2"}}}, {"name": "StatefulPartitionedCall/sequential/bidirectional_1/forward_lstm_1/PartitionedCall/while/merge/_278", "op": "Merge", "input": ["StatefulPartitionedCall/sequential/bidirectional_1/forward_lstm_1/PartitionedCall/while/enter/_267", "StatefulPartitionedCall/sequential/bidirectional_1/forward_lstm_1/PartitionedCall/while/next_iteration/_314"], "attr": {"T": {"type": "DT_FLOAT"}, "N": {"i": "2"}}}, {"name": "StatefulPartitionedCall/sequential/bidirectional_1/forward_lstm_1/PartitionedCall/while/merge/_279", "op": "Merge", "input": ["StatefulPartitionedCall/sequential/bidirectional_1/forward_lstm_1/PartitionedCall/while/enter/_268", "StatefulPartitionedCall/sequential/bidirectional_1/forward_lstm_1/PartitionedCall/while/next_iteration/_315"], "attr": {"N": {"i": "2"}, "T": {"type": "DT_FLOAT"}}}, {"name": "StatefulPartitionedCall/sequential/bidirectional_1/forward_lstm_1/PartitionedCall/while/merge/_280", "op": "Merge", "input": ["StatefulPartitionedCall/sequential/bidirectional_1/forward_lstm_1/PartitionedCall/while/enter/_269", "StatefulPartitionedCall/sequential/bidirectional_1/forward_lstm_1/PartitionedCall/while/next_iteration/_316"], "attr": {"N": {"i": "2"}, "T": {"type": "DT_FLOAT"}}}, {"name": "StatefulPartitionedCall/sequential/bidirectional_1/forward_lstm_1/PartitionedCall/while/merge/_272", "op": "Merge", "input": ["StatefulPartitionedCall/sequential/bidirectional_1/forward_lstm_1/PartitionedCall/while/enter/_261", "StatefulPartitionedCall/sequential/bidirectional_1/forward_lstm_1/PartitionedCall/while/next_iteration/_308"], "attr": {"N": {"i": "2"}, "T": {"type": "DT_INT32"}}}, {"name": "StatefulPartitionedCall/sequential/bidirectional_1/forward_lstm_1/PartitionedCall/while/merge/_270", "op": "Merge", "input": ["StatefulPartitionedCall/sequential/bidirectional_1/forward_lstm_1/PartitionedCall/while/enter/_259", "StatefulPartitionedCall/sequential/bidirectional_1/forward_lstm_1/PartitionedCall/while/next_iteration/_306"], "attr": {"N": {"i": "2"}, "T": {"type": "DT_INT32"}}}, {"name": "StatefulPartitionedCall/sequential/bidirectional_1/backward_lstm_1/PartitionedCall/while/merge/_338", "op": "Merge", "input": ["StatefulPartitionedCall/sequential/bidirectional_1/backward_lstm_1/PartitionedCall/while/enter/_327", "StatefulPartitionedCall/sequential/bidirectional_1/backward_lstm_1/PartitionedCall/while/next_iteration/_374"], "attr": {"T": {"type": "DT_FLOAT"}, "N": {"i": "2"}}}, {"name": "StatefulPartitionedCall/sequential/bidirectional_1/backward_lstm_1/PartitionedCall/while/merge/_339", "op": "Merge", "input": ["StatefulPartitionedCall/sequential/bidirectional_1/backward_lstm_1/PartitionedCall/while/enter/_328", "StatefulPartitionedCall/sequential/bidirectional_1/backward_lstm_1/PartitionedCall/while/next_iteration/_375"], "attr": {"N": {"i": "2"}, "T": {"type": "DT_FLOAT"}}}, {"name": "StatefulPartitionedCall/sequential/bidirectional_1/backward_lstm_1/PartitionedCall/while/merge/_340", "op": "Merge", "input": ["StatefulPartitionedCall/sequential/bidirectional_1/backward_lstm_1/PartitionedCall/while/enter/_329", "StatefulPartitionedCall/sequential/bidirectional_1/backward_lstm_1/PartitionedCall/while/next_iteration/_376"], "attr": {"T": {"type": "DT_FLOAT"}, "N": {"i": "2"}}}, {"name": "StatefulPartitionedCall/sequential/bidirectional_1/backward_lstm_1/PartitionedCall/while/merge/_332", "op": "Merge", "input": ["StatefulPartitionedCall/sequential/bidirectional_1/backward_lstm_1/PartitionedCall/while/enter/_321", "StatefulPartitionedCall/sequential/bidirectional_1/backward_lstm_1/PartitionedCall/while/next_iteration/_368"], "attr": {"N": {"i": "2"}, "T": {"type": "DT_INT32"}}}, {"name": "StatefulPartitionedCall/sequential/bidirectional/forward_lstm/PartitionedCall/while/merge/_158", "op": "Merge", "input": ["StatefulPartitionedCall/sequential/bidirectional/forward_lstm/PartitionedCall/while/enter/_147", "StatefulPartitionedCall/sequential/bidirectional/forward_lstm/PartitionedCall/while/next_iteration/_194"], "attr": {"N": {"i": "2"}, "T": {"type": "DT_FLOAT"}}}, {"name": "StatefulPartitionedCall/sequential/bidirectional/forward_lstm/PartitionedCall/while/merge/_159", "op": "Merge", "input": ["StatefulPartitionedCall/sequential/bidirectional/forward_lstm/PartitionedCall/while/enter/_148", "StatefulPartitionedCall/sequential/bidirectional/forward_lstm/PartitionedCall/while/next_iteration/_195"], "attr": {"T": {"type": "DT_FLOAT"}, "N": {"i": "2"}}}, {"name": "StatefulPartitionedCall/sequential/bidirectional/forward_lstm/PartitionedCall/while/merge/_160", "op": "Merge", "input": ["StatefulPartitionedCall/sequential/bidirectional/forward_lstm/PartitionedCall/while/enter/_149", "StatefulPartitionedCall/sequential/bidirectional/forward_lstm/PartitionedCall/while/next_iteration/_196"], "attr": {"N": {"i": "2"}, "T": {"type": "DT_FLOAT"}}}, {"name": "StatefulPartitionedCall/sequential/bidirectional/forward_lstm/PartitionedCall/while/merge/_152", "op": "Merge", "input": ["StatefulPartitionedCall/sequential/bidirectional/forward_lstm/PartitionedCall/while/enter/_141", "StatefulPartitionedCall/sequential/bidirectional/forward_lstm/PartitionedCall/while/next_iteration/_188"], "attr": {"T": {"type": "DT_INT32"}, "N": {"i": "2"}}}, {"name": "StatefulPartitionedCall/sequential/bidirectional/forward_lstm/PartitionedCall/while/merge/_150", "op": "Merge", "input": ["StatefulPartitionedCall/sequential/bidirectional/forward_lstm/PartitionedCall/while/enter/_139", "StatefulPartitionedCall/sequential/bidirectional/forward_lstm/PartitionedCall/while/next_iteration/_186"], "attr": {"N": {"i": "2"}, "T": {"type": "DT_INT32"}}}, {"name": "StatefulPartitionedCall/sequential/bidirectional/backward_lstm/PartitionedCall/while/merge/_218", "op": "Merge", "input": ["StatefulPartitionedCall/sequential/bidirectional/backward_lstm/PartitionedCall/while/enter/_207", "StatefulPartitionedCall/sequential/bidirectional/backward_lstm/PartitionedCall/while/next_iteration/_254"], "attr": {"T": {"type": "DT_FLOAT"}, "N": {"i": "2"}}}, {"name": "StatefulPartitionedCall/sequential/bidirectional/backward_lstm/PartitionedCall/while/merge/_219", "op": "Merge", "input": ["StatefulPartitionedCall/sequential/bidirectional/backward_lstm/PartitionedCall/while/enter/_208", "StatefulPartitionedCall/sequential/bidirectional/backward_lstm/PartitionedCall/while/next_iteration/_255"], "attr": {"T": {"type": "DT_FLOAT"}, "N": {"i": "2"}}}, {"name": "StatefulPartitionedCall/sequential/bidirectional/backward_lstm/PartitionedCall/while/merge/_220", "op": "Merge", "input": ["StatefulPartitionedCall/sequential/bidirectional/backward_lstm/PartitionedCall/while/enter/_209", "StatefulPartitionedCall/sequential/bidirectional/backward_lstm/PartitionedCall/while/next_iteration/_256"], "attr": {"N": {"i": "2"}, "T": {"type": "DT_FLOAT"}}}, {"name": "StatefulPartitionedCall/sequential/bidirectional/backward_lstm/PartitionedCall/while/merge/_212", "op": "Merge", "input": ["StatefulPartitionedCall/sequential/bidirectional/backward_lstm/PartitionedCall/while/enter/_201", "StatefulPartitionedCall/sequential/bidirectional/backward_lstm/PartitionedCall/while/next_iteration/_248"], "attr": {"T": {"type": "DT_INT32"}, "N": {"i": "2"}}}, {"name": "StatefulPartitionedCall/sequential/bidirectional/backward_lstm/PartitionedCall/while/merge/_210", "op": "Merge", "input": ["StatefulPartitionedCall/sequential/bidirectional/backward_lstm/PartitionedCall/while/enter/_199", "StatefulPartitionedCall/sequential/bidirectional/backward_lstm/PartitionedCall/while/next_iteration/_246"], "attr": {"N": {"i": "2"}, "T": {"type": "DT_INT32"}}}, {"name": "StatefulPartitionedCall/sequential/bidirectional_1/backward_lstm_1/PartitionedCall/while/merge/_330", "op": "Merge", "input": ["StatefulPartitionedCall/sequential/bidirectional_1/backward_lstm_1/PartitionedCall/while/enter/_319", "StatefulPartitionedCall/sequential/bidirectional_1/backward_lstm_1/PartitionedCall/while/next_iteration/_366"], "attr": {"T": {"type": "DT_INT32"}, "N": {"i": "2"}}}, {"name": "StatefulPartitionedCall/sequential/bidirectional_2/backward_lstm_2/PartitionedCall/while/merge/_450", "op": "Merge", "input": ["StatefulPartitionedCall/sequential/bidirectional_2/backward_lstm_2/PartitionedCall/while/enter/_439", "StatefulPartitionedCall/sequential/bidirectional_2/backward_lstm_2/PartitionedCall/while/next_iteration/_486"], "attr": {"N": {"i": "2"}, "T": {"type": "DT_INT32"}}}, {"name": "StatefulPartitionedCall/sequential/conv1d/Conv1D", "op": "_FusedConv2D", "input": ["StatefulPartitionedCall/sequential/conv1d/Conv1D/ExpandDims", "StatefulPartitionedCall/sequential/conv1d/Conv1D/ExpandDims_1", "StatefulPartitionedCall/sequential/conv1d/BiasAdd/ReadVariableOp"], "device": "/device:CPU:0", "attr": {"fused_ops": {"list": {"s": ["Qmlhc0FkZA=="]}}, "data_format": {"s": "TkhXQw=="}, "strides": {"list": {"i": ["1", "1", "1", "1"]}}, "use_cudnn_on_gpu": {"b": true}, "explicit_paddings": {"list": {}}, "epsilon": {"f": 0.0}, "padding": {"s": "VkFMSUQ="}, "num_args": {"i": "1"}, "T": {"type": "DT_FLOAT"}, "dilations": {"list": {"i": ["1", "1", "1", "1"]}}}}, {"name": "StatefulPartitionedCall/sequential/bidirectional_2/forward_lstm_2/PartitionedCall/while/merge/_393", "op": "Merge", "input": ["StatefulPartitionedCall/sequential/bidirectional_2/forward_lstm_2/PartitionedCall/while/enter/_382", "StatefulPartitionedCall/sequential/bidirectional_2/forward_lstm_2/PartitionedCall/while/next_iteration/_429"], "attr": {"T": {"type": "DT_VARIANT"}, "N": {"i": "2"}}}, {"name": "StatefulPartitionedCall/sequential/bidirectional_2/backward_lstm_2/PartitionedCall/while/merge/_453", "op": "Merge", "input": ["StatefulPartitionedCall/sequential/bidirectional_2/backward_lstm_2/PartitionedCall/while/enter/_442", "StatefulPartitionedCall/sequential/bidirectional_2/backward_lstm_2/PartitionedCall/while/next_iteration/_489"], "attr": {"N": {"i": "2"}, "T": {"type": "DT_VARIANT"}}}, {"name": "StatefulPartitionedCall/sequential/conv1d/BiasAdd", "op": "Squeeze", "input": ["StatefulPartitionedCall/sequential/conv1d/Conv1D"], "attr": {"squeeze_dims": {"list": {"i": ["-3"]}}, "T": {"type": "DT_FLOAT"}}}, {"name": "StatefulPartitionedCall/sequential/conv1d/Relu", "op": "Relu", "input": ["StatefulPartitionedCall/sequential/conv1d/BiasAdd"], "attr": {"T": {"type": "DT_FLOAT"}}}, {"name": "StatefulPartitionedCall/sequential/batch_normalization/batchnorm/mul_1", "op": "Mul", "input": ["StatefulPartitionedCall/sequential/conv1d/Relu", "StatefulPartitionedCall/sequential/batch_normalization/batchnorm/mul"], "attr": {"T": {"type": "DT_FLOAT"}}}, {"name": "StatefulPartitionedCall/sequential/batch_normalization/batchnorm/add_1", "op": "AddV2", "input": ["StatefulPartitionedCall/sequential/batch_normalization/batchnorm/mul_1", "StatefulPartitionedCall/sequential/batch_normalization/batchnorm/sub"], "attr": {"T": {"type": "DT_FLOAT"}}}, {"name": "StatefulPartitionedCall/sequential/max_pooling1d/ExpandDims", "op": "ExpandDims", "input": ["StatefulPartitionedCall/sequential/batch_normalization/batchnorm/add_1", "StatefulPartitionedCall/sequential/max_pooling1d/ExpandDims/dim"], "attr": {"Tdim": {"type": "DT_INT32"}, "T": {"type": "DT_FLOAT"}}}, {"name": "StatefulPartitionedCall/sequential/max_pooling1d/MaxPool", "op": "MaxPool", "input": ["StatefulPartitionedCall/sequential/max_pooling1d/ExpandDims"], "attr": {"T": {"type": "DT_FLOAT"}, "ksize": {"list": {"i": ["1", "1", "1", "1"]}}, "explicit_paddings": {"list": {}}, "data_format": {"s": "TkhXQw=="}, "padding": {"s": "VkFMSUQ="}, "strides": {"list": {"i": ["1", "1", "1", "1"]}}}}, {"name": "StatefulPartitionedCall/sequential/max_pooling1d/Squeeze", "op": "Squeeze", "input": ["StatefulPartitionedCall/sequential/max_pooling1d/MaxPool"], "attr": {"squeeze_dims": {"list": {"i": ["2"]}}, "T": {"type": "DT_FLOAT"}}}, {"name": "StatefulPartitionedCall/sequential/conv1d_1/Conv1D/ExpandDims", "op": "ExpandDims", "input": ["StatefulPartitionedCall/sequential/max_pooling1d/Squeeze", "StatefulPartitionedCall/sequential/conv1d_1/Conv1D/ExpandDims/dim"], "attr": {"T": {"type": "DT_FLOAT"}, "Tdim": {"type": "DT_INT32"}}}, {"name": "StatefulPartitionedCall/sequential/conv1d_1/Conv1D", "op": "_FusedConv2D", "input": ["StatefulPartitionedCall/sequential/conv1d_1/Conv1D/ExpandDims", "StatefulPartitionedCall/sequential/conv1d_1/Conv1D/ExpandDims_1", "StatefulPartitionedCall/sequential/conv1d_1/BiasAdd/ReadVariableOp"], "device": "/device:CPU:0", "attr": {"padding": {"s": "VkFMSUQ="}, "use_cudnn_on_gpu": {"b": true}, "T": {"type": "DT_FLOAT"}, "strides": {"list": {"i": ["1", "1", "1", "1"]}}, "explicit_paddings": {"list": {}}, "num_args": {"i": "1"}, "dilations": {"list": {"i": ["1", "1", "1", "1"]}}, "fused_ops": {"list": {"s": ["Qmlhc0FkZA=="]}}, "epsilon": {"f": 0.0}, "data_format": {"s": "TkhXQw=="}}}, {"name": "StatefulPartitionedCall/sequential/conv1d_1/BiasAdd", "op": "Squeeze", "input": ["StatefulPartitionedCall/sequential/conv1d_1/Conv1D"], "attr": {"squeeze_dims": {"list": {"i": ["-3"]}}, "T": {"type": "DT_FLOAT"}}}, {"name": "StatefulPartitionedCall/sequential/conv1d_1/Relu", "op": "Relu", "input": ["StatefulPartitionedCall/sequential/conv1d_1/BiasAdd"], "attr": {"T": {"type": "DT_FLOAT"}}}, {"name": "StatefulPartitionedCall/sequential/batch_normalization_1/batchnorm/mul_1", "op": "Mul", "input": ["StatefulPartitionedCall/sequential/conv1d_1/Relu", "StatefulPartitionedCall/sequential/batch_normalization_1/batchnorm/mul"], "attr": {"T": {"type": "DT_FLOAT"}}}, {"name": "StatefulPartitionedCall/sequential/batch_normalization_1/batchnorm/add_1", "op": "AddV2", "input": ["StatefulPartitionedCall/sequential/batch_normalization_1/batchnorm/mul_1", "StatefulPartitionedCall/sequential/batch_normalization_1/batchnorm/sub"], "attr": {"T": {"type": "DT_FLOAT"}}}, {"name": "StatefulPartitionedCall/sequential/max_pooling1d_1/ExpandDims", "op": "ExpandDims", "input": ["StatefulPartitionedCall/sequential/batch_normalization_1/batchnorm/add_1", "StatefulPartitionedCall/sequential/max_pooling1d_1/ExpandDims/dim"], "attr": {"Tdim": {"type": "DT_INT32"}, "T": {"type": "DT_FLOAT"}}}, {"name": "StatefulPartitionedCall/sequential/max_pooling1d_1/MaxPool", "op": "MaxPool", "input": ["StatefulPartitionedCall/sequential/max_pooling1d_1/ExpandDims"], "attr": {"data_format": {"s": "TkhXQw=="}, "padding": {"s": "VkFMSUQ="}, "strides": {"list": {"i": ["1", "1", "1", "1"]}}, "explicit_paddings": {"list": {}}, "T": {"type": "DT_FLOAT"}, "ksize": {"list": {"i": ["1", "1", "1", "1"]}}}}, {"name": "StatefulPartitionedCall/sequential/max_pooling1d_1/Squeeze", "op": "Squeeze", "input": ["StatefulPartitionedCall/sequential/max_pooling1d_1/MaxPool"], "attr": {"T": {"type": "DT_FLOAT"}, "squeeze_dims": {"list": {"i": ["2"]}}}}, {"name": "StatefulPartitionedCall/sequential/conv1d_2/Conv1D/ExpandDims", "op": "ExpandDims", "input": ["StatefulPartitionedCall/sequential/max_pooling1d_1/Squeeze", "StatefulPartitionedCall/sequential/conv1d_2/Conv1D/ExpandDims/dim"], "attr": {"Tdim": {"type": "DT_INT32"}, "T": {"type": "DT_FLOAT"}}}, {"name": "StatefulPartitionedCall/sequential/conv1d_2/Conv1D", "op": "_FusedConv2D", "input": ["StatefulPartitionedCall/sequential/conv1d_2/Conv1D/ExpandDims", "StatefulPartitionedCall/sequential/conv1d_2/Conv1D/ExpandDims_1", "StatefulPartitionedCall/sequential/conv1d_2/BiasAdd/ReadVariableOp"], "device": "/device:CPU:0", "attr": {"T": {"type": "DT_FLOAT"}, "fused_ops": {"list": {"s": ["Qmlhc0FkZA=="]}}, "use_cudnn_on_gpu": {"b": true}, "explicit_paddings": {"list": {}}, "padding": {"s": "VkFMSUQ="}, "num_args": {"i": "1"}, "dilations": {"list": {"i": ["1", "1", "1", "1"]}}, "strides": {"list": {"i": ["1", "1", "1", "1"]}}, "epsilon": {"f": 0.0}, "data_format": {"s": "TkhXQw=="}}}, {"name": "StatefulPartitionedCall/sequential/conv1d_2/BiasAdd", "op": "Squeeze", "input": ["StatefulPartitionedCall/sequential/conv1d_2/Conv1D"], "attr": {"squeeze_dims": {"list": {"i": ["-3"]}}, "T": {"type": "DT_FLOAT"}}}, {"name": "StatefulPartitionedCall/sequential/conv1d_2/Relu", "op": "Relu", "input": ["StatefulPartitionedCall/sequential/conv1d_2/BiasAdd"], "attr": {"T": {"type": "DT_FLOAT"}}}, {"name": "StatefulPartitionedCall/sequential/batch_normalization_2/batchnorm/mul_1", "op": "Mul", "input": ["StatefulPartitionedCall/sequential/conv1d_2/Relu", "StatefulPartitionedCall/sequential/batch_normalization_2/batchnorm/mul"], "attr": {"T": {"type": "DT_FLOAT"}}}, {"name": "StatefulPartitionedCall/sequential/batch_normalization_2/batchnorm/add_1", "op": "AddV2", "input": ["StatefulPartitionedCall/sequential/batch_normalization_2/batchnorm/mul_1", "StatefulPartitionedCall/sequential/batch_normalization_2/batchnorm/sub"], "attr": {"T": {"type": "DT_FLOAT"}}}, {"name": "StatefulPartitionedCall/sequential/max_pooling1d_2/ExpandDims", "op": "ExpandDims", "input": ["StatefulPartitionedCall/sequential/batch_normalization_2/batchnorm/add_1", "StatefulPartitionedCall/sequential/max_pooling1d_2/ExpandDims/dim"], "attr": {"T": {"type": "DT_FLOAT"}, "Tdim": {"type": "DT_INT32"}}}, {"name": "StatefulPartitionedCall/sequential/max_pooling1d_2/MaxPool", "op": "MaxPool", "input": ["StatefulPartitionedCall/sequential/max_pooling1d_2/ExpandDims"], "attr": {"data_format": {"s": "TkhXQw=="}, "padding": {"s": "VkFMSUQ="}, "strides": {"list": {"i": ["1", "2", "1", "1"]}}, "explicit_paddings": {"list": {}}, "T": {"type": "DT_FLOAT"}, "ksize": {"list": {"i": ["1", "2", "1", "1"]}}}}, {"name": "StatefulPartitionedCall/sequential/max_pooling1d_2/Squeeze", "op": "Squeeze", "input": ["StatefulPartitionedCall/sequential/max_pooling1d_2/MaxPool"], "attr": {"T": {"type": "DT_FLOAT"}, "squeeze_dims": {"list": {"i": ["2"]}}}}, {"name": "StatefulPartitionedCall/sequential/bidirectional/forward_lstm/Shape", "op": "Shape", "input": ["StatefulPartitionedCall/sequential/max_pooling1d_2/Squeeze"], "attr": {"out_type": {"type": "DT_INT32"}, "T": {"type": "DT_FLOAT"}}}, {"name": "StatefulPartitionedCall/sequential/bidirectional/forward_lstm/PartitionedCall/transpose", "op": "Transpose", "input": ["StatefulPartitionedCall/sequential/max_pooling1d_2/Squeeze", "StatefulPartitionedCall/sequential/bidirectional/forward_lstm/PartitionedCall/transpose/perm"], "attr": {"T": {"type": "DT_FLOAT"}, "Tperm": {"type": "DT_INT32"}}}, {"name": "StatefulPartitionedCall/sequential/bidirectional/backward_lstm/Shape", "op": "Shape", "input": ["StatefulPartitionedCall/sequential/max_pooling1d_2/Squeeze"], "attr": {"out_type": {"type": "DT_INT32"}, "T": {"type": "DT_FLOAT"}}}, {"name": "StatefulPartitionedCall/sequential/bidirectional/backward_lstm/PartitionedCall/transpose", "op": "Transpose", "input": ["StatefulPartitionedCall/sequential/max_pooling1d_2/Squeeze", "StatefulPartitionedCall/sequential/bidirectional/backward_lstm/PartitionedCall/transpose/perm"], "attr": {"T": {"type": "DT_FLOAT"}, "Tperm": {"type": "DT_INT32"}}}, {"name": "StatefulPartitionedCall/sequential/bidirectional/forward_lstm/strided_slice", "op": "StridedSlice", "input": ["StatefulPartitionedCall/sequential/bidirectional/forward_lstm/Shape", "StatefulPartitionedCall/sequential/bidirectional/forward_lstm/strided_slice/stack", "StatefulPartitionedCall/sequential/bidirectional/forward_lstm/strided_slice/stack_1", "StatefulPartitionedCall/sequential/bidirectional/forward_lstm/strided_slice/stack_2"], "attr": {"end_mask": {"i": "0"}, "Index": {"type": "DT_INT32"}, "shrink_axis_mask": {"i": "1"}, "new_axis_mask": {"i": "0"}, "ellipsis_mask": {"i": "0"}, "T": {"type": "DT_INT32"}, "begin_mask": {"i": "0"}}}, {"name": "StatefulPartitionedCall/sequential/bidirectional/forward_lstm/PartitionedCall/TensorArrayUnstack/TensorListFromTensor", "op": "TensorListFromTensor", "input": ["StatefulPartitionedCall/sequential/bidirectional/forward_lstm/PartitionedCall/transpose", "StatefulPartitionedCall/sequential/bidirectional/forward_lstm/PartitionedCall/TensorArrayUnstack/TensorListFromTensor/element_shape"], "attr": {"shape_type": {"type": "DT_INT32"}, "element_dtype": {"type": "DT_FLOAT"}}, "experimentalType": {"typeId": "TFT_PRODUCT", "args": [{"typeId": "TFT_ARRAY", "args": [{"typeId": "TFT_TENSOR", "args": [{"typeId": "TFT_FLOAT"}]}]}]}}, {"name": "StatefulPartitionedCall/sequential/bidirectional/forward_lstm/PartitionedCall/Shape", "op": "Shape", "input": ["StatefulPartitionedCall/sequential/bidirectional/forward_lstm/PartitionedCall/transpose"], "attr": {"out_type": {"type": "DT_INT32"}, "T": {"type": "DT_FLOAT"}}}, {"name": "StatefulPartitionedCall/sequential/bidirectional/backward_lstm/strided_slice", "op": "StridedSlice", "input": ["StatefulPartitionedCall/sequential/bidirectional/backward_lstm/Shape", "StatefulPartitionedCall/sequential/bidirectional/backward_lstm/strided_slice/stack", "StatefulPartitionedCall/sequential/bidirectional/backward_lstm/strided_slice/stack_1", "StatefulPartitionedCall/sequential/bidirectional/backward_lstm/strided_slice/stack_2"], "attr": {"ellipsis_mask": {"i": "0"}, "shrink_axis_mask": {"i": "1"}, "end_mask": {"i": "0"}, "new_axis_mask": {"i": "0"}, "T": {"type": "DT_INT32"}, "begin_mask": {"i": "0"}, "Index": {"type": "DT_INT32"}}}, {"name": "StatefulPartitionedCall/sequential/bidirectional/backward_lstm/PartitionedCall/ReverseV2", "op": "ReverseV2", "input": ["StatefulPartitionedCall/sequential/bidirectional/backward_lstm/PartitionedCall/transpose", "StatefulPartitionedCall/sequential/bidirectional/backward_lstm/PartitionedCall/ReverseV2/axis"], "attr": {"Tidx": {"type": "DT_INT32"}, "T": {"type": "DT_FLOAT"}}}, {"name": "StatefulPartitionedCall/sequential/bidirectional/backward_lstm/PartitionedCall/Shape", "op": "Shape", "input": ["StatefulPartitionedCall/sequential/bidirectional/backward_lstm/PartitionedCall/transpose"], "attr": {"T": {"type": "DT_FLOAT"}, "out_type": {"type": "DT_INT32"}}}, {"name": "StatefulPartitionedCall/sequential/bidirectional/forward_lstm/zeros_1/packed", "op": "Pack", "input": ["StatefulPartitionedCall/sequential/bidirectional/forward_lstm/strided_slice", "StatefulPartitionedCall/sequential/bidirectional/forward_lstm/zeros_1/packed/1"], "attr": {"N": {"i": "2"}, "axis": {"i": "0"}, "T": {"type": "DT_INT32"}}}, {"name": "StatefulPartitionedCall/sequential/bidirectional/forward_lstm/zeros/packed", "op": "Pack", "input": ["StatefulPartitionedCall/sequential/bidirectional/forward_lstm/strided_slice", "StatefulPartitionedCall/sequential/bidirectional/forward_lstm/zeros/packed/1"], "attr": {"N": {"i": "2"}, "axis": {"i": "0"}, "T": {"type": "DT_INT32"}}}, {"name": "StatefulPartitionedCall/sequential/bidirectional/forward_lstm/PartitionedCall/while/enter/_146", "op": "Enter", "input": ["StatefulPartitionedCall/sequential/bidirectional/forward_lstm/PartitionedCall/TensorArrayUnstack/TensorListFromTensor"], "attr": {"parallel_iterations": {"i": "32"}, "is_constant": {"b": false}, "T": {"type": "DT_VARIANT"}, "frame_name": {"s": "U3RhdGVmdWxQYXJ0aXRpb25lZENhbGwvc2VxdWVudGlhbC9iaWRpcmVjdGlvbmFsL2ZvcndhcmRfbHN0bS9QYXJ0aXRpb25lZENhbGwvd2hpbGU="}}}, {"name": "StatefulPartitionedCall/sequential/bidirectional/forward_lstm/PartitionedCall/strided_slice", "op": "StridedSlice", "input": ["StatefulPartitionedCall/sequential/bidirectional/forward_lstm/PartitionedCall/Shape", "StatefulPartitionedCall/sequential/bidirectional/forward_lstm/PartitionedCall/strided_slice/stack", "StatefulPartitionedCall/sequential/bidirectional/forward_lstm/PartitionedCall/strided_slice/stack_1", "StatefulPartitionedCall/sequential/bidirectional/forward_lstm/PartitionedCall/strided_slice/stack_2"], "attr": {"end_mask": {"i": "0"}, "begin_mask": {"i": "0"}, "new_axis_mask": {"i": "0"}, "T": {"type": "DT_INT32"}, "Index": {"type": "DT_INT32"}, "shrink_axis_mask": {"i": "1"}, "ellipsis_mask": {"i": "0"}}}, {"name": "StatefulPartitionedCall/sequential/bidirectional/backward_lstm/zeros_1/packed", "op": "Pack", "input": ["StatefulPartitionedCall/sequential/bidirectional/backward_lstm/strided_slice", "StatefulPartitionedCall/sequential/bidirectional/backward_lstm/zeros_1/packed/1"], "attr": {"axis": {"i": "0"}, "T": {"type": "DT_INT32"}, "N": {"i": "2"}}}, {"name": "StatefulPartitionedCall/sequential/bidirectional/backward_lstm/zeros/packed", "op": "Pack", "input": ["StatefulPartitionedCall/sequential/bidirectional/backward_lstm/strided_slice", "StatefulPartitionedCall/sequential/bidirectional/backward_lstm/zeros/packed/1"], "attr": {"axis": {"i": "0"}, "T": {"type": "DT_INT32"}, "N": {"i": "2"}}}, {"name": "StatefulPartitionedCall/sequential/bidirectional/backward_lstm/PartitionedCall/TensorArrayUnstack/TensorListFromTensor", "op": "TensorListFromTensor", "input": ["StatefulPartitionedCall/sequential/bidirectional/backward_lstm/PartitionedCall/ReverseV2", "StatefulPartitionedCall/sequential/bidirectional/backward_lstm/PartitionedCall/TensorArrayUnstack/TensorListFromTensor/element_shape"], "attr": {"shape_type": {"type": "DT_INT32"}, "element_dtype": {"type": "DT_FLOAT"}}, "experimentalType": {"typeId": "TFT_PRODUCT", "args": [{"typeId": "TFT_ARRAY", "args": [{"typeId": "TFT_TENSOR", "args": [{"typeId": "TFT_FLOAT"}]}]}]}}, {"name": "StatefulPartitionedCall/sequential/bidirectional/backward_lstm/PartitionedCall/strided_slice", "op": "StridedSlice", "input": ["StatefulPartitionedCall/sequential/bidirectional/backward_lstm/PartitionedCall/Shape", "StatefulPartitionedCall/sequential/bidirectional/backward_lstm/PartitionedCall/strided_slice/stack", "StatefulPartitionedCall/sequential/bidirectional/backward_lstm/PartitionedCall/strided_slice/stack_1", "StatefulPartitionedCall/sequential/bidirectional/backward_lstm/PartitionedCall/strided_slice/stack_2"], "attr": {"shrink_axis_mask": {"i": "1"}, "end_mask": {"i": "0"}, "new_axis_mask": {"i": "0"}, "Index": {"type": "DT_INT32"}, "ellipsis_mask": {"i": "0"}, "T": {"type": "DT_INT32"}, "begin_mask": {"i": "0"}}}, {"name": "StatefulPartitionedCall/sequential/bidirectional/forward_lstm/zeros_1", "op": "Fill", "input": ["StatefulPartitionedCall/sequential/bidirectional/forward_lstm/zeros_1/packed", "StatefulPartitionedCall/sequential/bidirectional/forward_lstm/zeros_1/Const"], "attr": {"index_type": {"type": "DT_INT32"}, "T": {"type": "DT_FLOAT"}}}, {"name": "StatefulPartitionedCall/sequential/bidirectional/forward_lstm/zeros", "op": "Fill", "input": ["StatefulPartitionedCall/sequential/bidirectional/forward_lstm/zeros/packed", "StatefulPartitionedCall/sequential/bidirectional/forward_lstm/zeros/Const"], "attr": {"index_type": {"type": "DT_INT32"}, "T": {"type": "DT_FLOAT"}}}, {"name": "StatefulPartitionedCall/sequential/bidirectional/forward_lstm/PartitionedCall/while/merge/_157", "op": "Merge", "input": ["StatefulPartitionedCall/sequential/bidirectional/forward_lstm/PartitionedCall/while/enter/_146", "StatefulPartitionedCall/sequential/bidirectional/forward_lstm/PartitionedCall/while/next_iteration/_193"], "attr": {"T": {"type": "DT_VARIANT"}, "N": {"i": "2"}}}, {"name": "StatefulPartitionedCall/sequential/bidirectional/forward_lstm/PartitionedCall/TensorArrayV2_1", "op": "TensorListReserve", "input": ["StatefulPartitionedCall/sequential/bidirectional/forward_lstm/PartitionedCall/TensorArrayV2_1/element_shape", "StatefulPartitionedCall/sequential/bidirectional/forward_lstm/PartitionedCall/strided_slice"], "attr": {"element_dtype": {"type": "DT_FLOAT"}, "shape_type": {"type": "DT_INT32"}}, "experimentalType": {"typeId": "TFT_PRODUCT", "args": [{"typeId": "TFT_ARRAY", "args": [{"typeId": "TFT_TENSOR", "args": [{"typeId": "TFT_FLOAT"}]}]}]}}, {"name": "StatefulPartitionedCall/sequential/bidirectional/forward_lstm/PartitionedCall/while/enter/_145", "op": "Enter", "input": ["StatefulPartitionedCall/sequential/bidirectional/forward_lstm/PartitionedCall/strided_slice"], "attr": {"frame_name": {"s": "U3RhdGVmdWxQYXJ0aXRpb25lZENhbGwvc2VxdWVudGlhbC9iaWRpcmVjdGlvbmFsL2ZvcndhcmRfbHN0bS9QYXJ0aXRpb25lZENhbGwvd2hpbGU="}, "parallel_iterations": {"i": "32"}, "is_constant": {"b": false}, "T": {"type": "DT_INT32"}}}, {"name": "StatefulPartitionedCall/sequential/bidirectional/backward_lstm/zeros_1", "op": "Fill", "input": ["StatefulPartitionedCall/sequential/bidirectional/backward_lstm/zeros_1/packed", "StatefulPartitionedCall/sequential/bidirectional/backward_lstm/zeros_1/Const"], "attr": {"index_type": {"type": "DT_INT32"}, "T": {"type": "DT_FLOAT"}}}, {"name": "StatefulPartitionedCall/sequential/bidirectional/backward_lstm/zeros", "op": "Fill", "input": ["StatefulPartitionedCall/sequential/bidirectional/backward_lstm/zeros/packed", "StatefulPartitionedCall/sequential/bidirectional/backward_lstm/zeros/Const"], "attr": {"index_type": {"type": "DT_INT32"}, "T": {"type": "DT_FLOAT"}}}, {"name": "StatefulPartitionedCall/sequential/bidirectional/backward_lstm/PartitionedCall/while/enter/_206", "op": "Enter", "input": ["StatefulPartitionedCall/sequential/bidirectional/backward_lstm/PartitionedCall/TensorArrayUnstack/TensorListFromTensor"], "attr": {"frame_name": {"s": "U3RhdGVmdWxQYXJ0aXRpb25lZENhbGwvc2VxdWVudGlhbC9iaWRpcmVjdGlvbmFsL2JhY2t3YXJkX2xzdG0vUGFydGl0aW9uZWRDYWxsL3doaWxl"}, "parallel_iterations": {"i": "32"}, "is_constant": {"b": false}, "T": {"type": "DT_VARIANT"}}}, {"name": "StatefulPartitionedCall/sequential/bidirectional/backward_lstm/PartitionedCall/TensorArrayV2_1", "op": "TensorListReserve", "input": ["StatefulPartitionedCall/sequential/bidirectional/backward_lstm/PartitionedCall/TensorArrayV2_1/element_shape", "StatefulPartitionedCall/sequential/bidirectional/backward_lstm/PartitionedCall/strided_slice"], "attr": {"shape_type": {"type": "DT_INT32"}, "element_dtype": {"type": "DT_FLOAT"}}, "experimentalType": {"typeId": "TFT_PRODUCT", "args": [{"typeId": "TFT_ARRAY", "args": [{"typeId": "TFT_TENSOR", "args": [{"typeId": "TFT_FLOAT"}]}]}]}}, {"name": "StatefulPartitionedCall/sequential/bidirectional/backward_lstm/PartitionedCall/while/enter/_205", "op": "Enter", "input": ["StatefulPartitionedCall/sequential/bidirectional/backward_lstm/PartitionedCall/strided_slice"], "attr": {"T": {"type": "DT_INT32"}, "is_constant": {"b": false}, "frame_name": {"s": "U3RhdGVmdWxQYXJ0aXRpb25lZENhbGwvc2VxdWVudGlhbC9iaWRpcmVjdGlvbmFsL2JhY2t3YXJkX2xzdG0vUGFydGl0aW9uZWRDYWxsL3doaWxl"}, "parallel_iterations": {"i": "32"}}}, {"name": "StatefulPartitionedCall/sequential/bidirectional/forward_lstm/PartitionedCall/while/enter/_144", "op": "Enter", "input": ["StatefulPartitionedCall/sequential/bidirectional/forward_lstm/zeros_1"], "attr": {"parallel_iterations": {"i": "32"}, "is_constant": {"b": false}, "frame_name": {"s": "U3RhdGVmdWxQYXJ0aXRpb25lZENhbGwvc2VxdWVudGlhbC9iaWRpcmVjdGlvbmFsL2ZvcndhcmRfbHN0bS9QYXJ0aXRpb25lZENhbGwvd2hpbGU="}, "T": {"type": "DT_FLOAT"}}}, {"name": "StatefulPartitionedCall/sequential/bidirectional/forward_lstm/PartitionedCall/while/enter/_143", "op": "Enter", "input": ["StatefulPartitionedCall/sequential/bidirectional/forward_lstm/zeros"], "attr": {"frame_name": {"s": "U3RhdGVmdWxQYXJ0aXRpb25lZENhbGwvc2VxdWVudGlhbC9iaWRpcmVjdGlvbmFsL2ZvcndhcmRfbHN0bS9QYXJ0aXRpb25lZENhbGwvd2hpbGU="}, "T": {"type": "DT_FLOAT"}, "parallel_iterations": {"i": "32"}, "is_constant": {"b": false}}}, {"name": "StatefulPartitionedCall/sequential/bidirectional/forward_lstm/PartitionedCall/while/enter/_142", "op": "Enter", "input": ["StatefulPartitionedCall/sequential/bidirectional/forward_lstm/PartitionedCall/TensorArrayV2_1"], "attr": {"T": {"type": "DT_VARIANT"}, "frame_name": {"s": "U3RhdGVmdWxQYXJ0aXRpb25lZENhbGwvc2VxdWVudGlhbC9iaWRpcmVjdGlvbmFsL2ZvcndhcmRfbHN0bS9QYXJ0aXRpb25lZENhbGwvd2hpbGU="}, "parallel_iterations": {"i": "32"}, "is_constant": {"b": false}}}, {"name": "StatefulPartitionedCall/sequential/bidirectional/forward_lstm/PartitionedCall/while/merge/_156", "op": "Merge", "input": ["StatefulPartitionedCall/sequential/bidirectional/forward_lstm/PartitionedCall/while/enter/_145", "StatefulPartitionedCall/sequential/bidirectional/forward_lstm/PartitionedCall/while/next_iteration/_192"], "attr": {"N": {"i": "2"}, "T": {"type": "DT_INT32"}}}, {"name": "StatefulPartitionedCall/sequential/bidirectional/backward_lstm/PartitionedCall/while/enter/_204", "op": "Enter", "input": ["StatefulPartitionedCall/sequential/bidirectional/backward_lstm/zeros_1"], "attr": {"parallel_iterations": {"i": "32"}, "is_constant": {"b": false}, "frame_name": {"s": "U3RhdGVmdWxQYXJ0aXRpb25lZENhbGwvc2VxdWVudGlhbC9iaWRpcmVjdGlvbmFsL2JhY2t3YXJkX2xzdG0vUGFydGl0aW9uZWRDYWxsL3doaWxl"}, "T": {"type": "DT_FLOAT"}}}, {"name": "StatefulPartitionedCall/sequential/bidirectional/backward_lstm/PartitionedCall/while/enter/_203", "op": "Enter", "input": ["StatefulPartitionedCall/sequential/bidirectional/backward_lstm/zeros"], "attr": {"parallel_iterations": {"i": "32"}, "is_constant": {"b": false}, "T": {"type": "DT_FLOAT"}, "frame_name": {"s": "U3RhdGVmdWxQYXJ0aXRpb25lZENhbGwvc2VxdWVudGlhbC9iaWRpcmVjdGlvbmFsL2JhY2t3YXJkX2xzdG0vUGFydGl0aW9uZWRDYWxsL3doaWxl"}}}, {"name": "StatefulPartitionedCall/sequential/bidirectional/backward_lstm/PartitionedCall/while/merge/_217", "op": "Merge", "input": ["StatefulPartitionedCall/sequential/bidirectional/backward_lstm/PartitionedCall/while/enter/_206", "StatefulPartitionedCall/sequential/bidirectional/backward_lstm/PartitionedCall/while/next_iteration/_253"], "attr": {"N": {"i": "2"}, "T": {"type": "DT_VARIANT"}}}, {"name": "StatefulPartitionedCall/sequential/bidirectional/backward_lstm/PartitionedCall/while/enter/_202", "op": "Enter", "input": ["StatefulPartitionedCall/sequential/bidirectional/backward_lstm/PartitionedCall/TensorArrayV2_1"], "attr": {"frame_name": {"s": "U3RhdGVmdWxQYXJ0aXRpb25lZENhbGwvc2VxdWVudGlhbC9iaWRpcmVjdGlvbmFsL2JhY2t3YXJkX2xzdG0vUGFydGl0aW9uZWRDYWxsL3doaWxl"}, "T": {"type": "DT_VARIANT"}, "parallel_iterations": {"i": "32"}, "is_constant": {"b": false}}}, {"name": "StatefulPartitionedCall/sequential/bidirectional/backward_lstm/PartitionedCall/while/merge/_216", "op": "Merge", "input": ["StatefulPartitionedCall/sequential/bidirectional/backward_lstm/PartitionedCall/while/enter/_205", "StatefulPartitionedCall/sequential/bidirectional/backward_lstm/PartitionedCall/while/next_iteration/_252"], "attr": {"T": {"type": "DT_INT32"}, "N": {"i": "2"}}}, {"name": "StatefulPartitionedCall/sequential/bidirectional/forward_lstm/PartitionedCall/while/merge/_155", "op": "Merge", "input": ["StatefulPartitionedCall/sequential/bidirectional/forward_lstm/PartitionedCall/while/enter/_144", "StatefulPartitionedCall/sequential/bidirectional/forward_lstm/PartitionedCall/while/next_iteration/_191"], "attr": {"N": {"i": "2"}, "T": {"type": "DT_FLOAT"}}}, {"name": "StatefulPartitionedCall/sequential/bidirectional/forward_lstm/PartitionedCall/while/merge/_154", "op": "Merge", "input": ["StatefulPartitionedCall/sequential/bidirectional/forward_lstm/PartitionedCall/while/enter/_143", "StatefulPartitionedCall/sequential/bidirectional/forward_lstm/PartitionedCall/while/next_iteration/_190"], "attr": {"T": {"type": "DT_FLOAT"}, "N": {"i": "2"}}}, {"name": "StatefulPartitionedCall/sequential/bidirectional/forward_lstm/PartitionedCall/while/merge/_153", "op": "Merge", "input": ["StatefulPartitionedCall/sequential/bidirectional/forward_lstm/PartitionedCall/while/enter/_142", "StatefulPartitionedCall/sequential/bidirectional/forward_lstm/PartitionedCall/while/next_iteration/_189"], "attr": {"N": {"i": "2"}, "T": {"type": "DT_VARIANT"}}}, {"name": "StatefulPartitionedCall/sequential/bidirectional/forward_lstm/PartitionedCall/while/cond/_137/while/Less", "op": "Less", "input": ["StatefulPartitionedCall/sequential/bidirectional/forward_lstm/PartitionedCall/while/merge/_152", "StatefulPartitionedCall/sequential/bidirectional/forward_lstm/PartitionedCall/while/merge/_156", "^StatefulPartitionedCall/sequential/bidirectional/forward_lstm/PartitionedCall/while/merge/_150"], "attr": {"T": {"type": "DT_INT32"}}}, {"name": "StatefulPartitionedCall/sequential/bidirectional/backward_lstm/PartitionedCall/while/merge/_215", "op": "Merge", "input": ["StatefulPartitionedCall/sequential/bidirectional/backward_lstm/PartitionedCall/while/enter/_204", "StatefulPartitionedCall/sequential/bidirectional/backward_lstm/PartitionedCall/while/next_iteration/_251"], "attr": {"N": {"i": "2"}, "T": {"type": "DT_FLOAT"}}}, {"name": "StatefulPartitionedCall/sequential/bidirectional/backward_lstm/PartitionedCall/while/merge/_214", "op": "Merge", "input": ["StatefulPartitionedCall/sequential/bidirectional/backward_lstm/PartitionedCall/while/enter/_203", "StatefulPartitionedCall/sequential/bidirectional/backward_lstm/PartitionedCall/while/next_iteration/_250"], "attr": {"T": {"type": "DT_FLOAT"}, "N": {"i": "2"}}}, {"name": "StatefulPartitionedCall/sequential/bidirectional/backward_lstm/PartitionedCall/while/merge/_213", "op": "Merge", "input": ["StatefulPartitionedCall/sequential/bidirectional/backward_lstm/PartitionedCall/while/enter/_202", "StatefulPartitionedCall/sequential/bidirectional/backward_lstm/PartitionedCall/while/next_iteration/_249"], "attr": {"N": {"i": "2"}, "T": {"type": "DT_VARIANT"}}}, {"name": "StatefulPartitionedCall/sequential/bidirectional/backward_lstm/PartitionedCall/while/cond/_197/while/Less", "op": "Less", "input": ["StatefulPartitionedCall/sequential/bidirectional/backward_lstm/PartitionedCall/while/merge/_212", "StatefulPartitionedCall/sequential/bidirectional/backward_lstm/PartitionedCall/while/merge/_216", "^StatefulPartitionedCall/sequential/bidirectional/backward_lstm/PartitionedCall/while/merge/_210"], "attr": {"T": {"type": "DT_INT32"}}}, {"name": "StatefulPartitionedCall/sequential/bidirectional/forward_lstm/PartitionedCall/while/LoopCond/_161", "op": "LoopCond", "input": ["StatefulPartitionedCall/sequential/bidirectional/forward_lstm/PartitionedCall/while/cond/_137/while/Less"]}, {"name": "StatefulPartitionedCall/sequential/bidirectional/backward_lstm/PartitionedCall/while/LoopCond/_221", "op": "LoopCond", "input": ["StatefulPartitionedCall/sequential/bidirectional/backward_lstm/PartitionedCall/while/cond/_197/while/Less"]}, {"name": "StatefulPartitionedCall/sequential/bidirectional/forward_lstm/PartitionedCall/while/Func/StatefulPartitionedCall/sequential/bidirectional/forward_lstm/PartitionedCall/input/_73_switch/_167", "op": "Switch", "input": ["StatefulPartitionedCall/sequential/bidirectional/forward_lstm/PartitionedCall/while/merge/_155", "StatefulPartitionedCall/sequential/bidirectional/forward_lstm/PartitionedCall/while/LoopCond/_161"], "attr": {"T": {"type": "DT_FLOAT"}}}, {"name": "StatefulPartitionedCall/sequential/bidirectional/forward_lstm/PartitionedCall/while/StatefulPartitionedCall/sequential/bidirectional/forward_lstm/PartitionedCall/TensorArrayUnstack/TensorListFromTensor_switch/_169", "op": "Switch", "input": ["StatefulPartitionedCall/sequential/bidirectional/forward_lstm/PartitionedCall/while/merge/_157", "StatefulPartitionedCall/sequential/bidirectional/forward_lstm/PartitionedCall/while/LoopCond/_161"], "attr": {"T": {"type": "DT_VARIANT"}}}, {"name": "StatefulPartitionedCall/sequential/bidirectional/forward_lstm/PartitionedCall/while/Func/StatefulPartitionedCall/sequential/bidirectional/forward_lstm/PartitionedCall/input/_74_switch/_170", "op": "Switch", "input": ["StatefulPartitionedCall/sequential/bidirectional/forward_lstm/PartitionedCall/while/merge/_158", "StatefulPartitionedCall/sequential/bidirectional/forward_lstm/PartitionedCall/while/LoopCond/_161"], "attr": {"T": {"type": "DT_FLOAT"}}}, {"name": "StatefulPartitionedCall/sequential/bidirectional/forward_lstm/PartitionedCall/while/Func/StatefulPartitionedCall/sequential/bidirectional/forward_lstm/PartitionedCall/input/_72_switch/_166", "op": "Switch", "input": ["StatefulPartitionedCall/sequential/bidirectional/forward_lstm/PartitionedCall/while/merge/_154", "StatefulPartitionedCall/sequential/bidirectional/forward_lstm/PartitionedCall/while/LoopCond/_161"], "attr": {"T": {"type": "DT_FLOAT"}}}, {"name": "StatefulPartitionedCall/sequential/bidirectional/forward_lstm/PartitionedCall/while/Func/StatefulPartitionedCall/sequential/bidirectional/forward_lstm/PartitionedCall/input/_75_switch/_171", "op": "Switch", "input": ["StatefulPartitionedCall/sequential/bidirectional/forward_lstm/PartitionedCall/while/merge/_159", "StatefulPartitionedCall/sequential/bidirectional/forward_lstm/PartitionedCall/while/LoopCond/_161"], "attr": {"T": {"type": "DT_FLOAT"}}}, {"name": "StatefulPartitionedCall/sequential/bidirectional/forward_lstm/PartitionedCall/while/Func/StatefulPartitionedCall/sequential/bidirectional/forward_lstm/PartitionedCall/input/_76_switch/_172", "op": "Switch", "input": ["StatefulPartitionedCall/sequential/bidirectional/forward_lstm/PartitionedCall/while/merge/_160", "StatefulPartitionedCall/sequential/bidirectional/forward_lstm/PartitionedCall/while/LoopCond/_161"], "attr": {"T": {"type": "DT_FLOAT"}}}, {"name": "StatefulPartitionedCall/sequential/bidirectional/forward_lstm/PartitionedCall/while/StatefulPartitionedCall/sequential/bidirectional/forward_lstm/PartitionedCall/time_switch/_164", "op": "Switch", "input": ["StatefulPartitionedCall/sequential/bidirectional/forward_lstm/PartitionedCall/while/merge/_152", "StatefulPartitionedCall/sequential/bidirectional/forward_lstm/PartitionedCall/while/LoopCond/_161"], "attr": {"T": {"type": "DT_INT32"}}}, {"name": "StatefulPartitionedCall/sequential/bidirectional/forward_lstm/PartitionedCall/while/StatefulPartitionedCall/sequential/bidirectional/forward_lstm/PartitionedCall/while/loop_counter_switch/_162", "op": "Switch", "input": ["StatefulPartitionedCall/sequential/bidirectional/forward_lstm/PartitionedCall/while/merge/_150", "StatefulPartitionedCall/sequential/bidirectional/forward_lstm/PartitionedCall/while/LoopCond/_161"], "attr": {"T": {"type": "DT_INT32"}}}, {"name": "StatefulPartitionedCall/sequential/bidirectional/forward_lstm/PartitionedCall/while/StatefulPartitionedCall/sequential/bidirectional/forward_lstm/PartitionedCall/TensorArrayV2_1_switch/_165", "op": "Switch", "input": ["StatefulPartitionedCall/sequential/bidirectional/forward_lstm/PartitionedCall/while/merge/_153", "StatefulPartitionedCall/sequential/bidirectional/forward_lstm/PartitionedCall/while/LoopCond/_161"], "attr": {"T": {"type": "DT_VARIANT"}}}, {"name": "StatefulPartitionedCall/sequential/bidirectional/forward_lstm/PartitionedCall/while/StatefulPartitionedCall/sequential/bidirectional/forward_lstm/PartitionedCall/strided_slice_switch/_168", "op": "Switch", "input": ["StatefulPartitionedCall/sequential/bidirectional/forward_lstm/PartitionedCall/while/merge/_156", "StatefulPartitionedCall/sequential/bidirectional/forward_lstm/PartitionedCall/while/LoopCond/_161"], "attr": {"T": {"type": "DT_INT32"}}}, {"name": "StatefulPartitionedCall/sequential/bidirectional/backward_lstm/PartitionedCall/while/Func/StatefulPartitionedCall/sequential/bidirectional/backward_lstm/PartitionedCall/input/_84_switch/_227", "op": "Switch", "input": ["StatefulPartitionedCall/sequential/bidirectional/backward_lstm/PartitionedCall/while/merge/_215", "StatefulPartitionedCall/sequential/bidirectional/backward_lstm/PartitionedCall/while/LoopCond/_221"], "attr": {"T": {"type": "DT_FLOAT"}}}, {"name": "StatefulPartitionedCall/sequential/bidirectional/backward_lstm/PartitionedCall/while/StatefulPartitionedCall/sequential/bidirectional/backward_lstm/PartitionedCall/TensorArrayUnstack/TensorListFromTensor_switch/_229", "op": "Switch", "input": ["StatefulPartitionedCall/sequential/bidirectional/backward_lstm/PartitionedCall/while/merge/_217", "StatefulPartitionedCall/sequential/bidirectional/backward_lstm/PartitionedCall/while/LoopCond/_221"], "attr": {"T": {"type": "DT_VARIANT"}}}, {"name": "StatefulPartitionedCall/sequential/bidirectional/backward_lstm/PartitionedCall/while/Func/StatefulPartitionedCall/sequential/bidirectional/backward_lstm/PartitionedCall/input/_85_switch/_230", "op": "Switch", "input": ["StatefulPartitionedCall/sequential/bidirectional/backward_lstm/PartitionedCall/while/merge/_218", "StatefulPartitionedCall/sequential/bidirectional/backward_lstm/PartitionedCall/while/LoopCond/_221"], "attr": {"T": {"type": "DT_FLOAT"}}}, {"name": "StatefulPartitionedCall/sequential/bidirectional/backward_lstm/PartitionedCall/while/Func/StatefulPartitionedCall/sequential/bidirectional/backward_lstm/PartitionedCall/input/_83_switch/_226", "op": "Switch", "input": ["StatefulPartitionedCall/sequential/bidirectional/backward_lstm/PartitionedCall/while/merge/_214", "StatefulPartitionedCall/sequential/bidirectional/backward_lstm/PartitionedCall/while/LoopCond/_221"], "attr": {"T": {"type": "DT_FLOAT"}}}, {"name": "StatefulPartitionedCall/sequential/bidirectional/backward_lstm/PartitionedCall/while/Func/StatefulPartitionedCall/sequential/bidirectional/backward_lstm/PartitionedCall/input/_86_switch/_231", "op": "Switch", "input": ["StatefulPartitionedCall/sequential/bidirectional/backward_lstm/PartitionedCall/while/merge/_219", "StatefulPartitionedCall/sequential/bidirectional/backward_lstm/PartitionedCall/while/LoopCond/_221"], "attr": {"T": {"type": "DT_FLOAT"}}}, {"name": "StatefulPartitionedCall/sequential/bidirectional/backward_lstm/PartitionedCall/while/Func/StatefulPartitionedCall/sequential/bidirectional/backward_lstm/PartitionedCall/input/_87_switch/_232", "op": "Switch", "input": ["StatefulPartitionedCall/sequential/bidirectional/backward_lstm/PartitionedCall/while/merge/_220", "StatefulPartitionedCall/sequential/bidirectional/backward_lstm/PartitionedCall/while/LoopCond/_221"], "attr": {"T": {"type": "DT_FLOAT"}}}, {"name": "StatefulPartitionedCall/sequential/bidirectional/backward_lstm/PartitionedCall/while/StatefulPartitionedCall/sequential/bidirectional/backward_lstm/PartitionedCall/time_switch/_224", "op": "Switch", "input": ["StatefulPartitionedCall/sequential/bidirectional/backward_lstm/PartitionedCall/while/merge/_212", "StatefulPartitionedCall/sequential/bidirectional/backward_lstm/PartitionedCall/while/LoopCond/_221"], "attr": {"T": {"type": "DT_INT32"}}}, {"name": "StatefulPartitionedCall/sequential/bidirectional/backward_lstm/PartitionedCall/while/StatefulPartitionedCall/sequential/bidirectional/backward_lstm/PartitionedCall/while/loop_counter_switch/_222", "op": "Switch", "input": ["StatefulPartitionedCall/sequential/bidirectional/backward_lstm/PartitionedCall/while/merge/_210", "StatefulPartitionedCall/sequential/bidirectional/backward_lstm/PartitionedCall/while/LoopCond/_221"], "attr": {"T": {"type": "DT_INT32"}}}, {"name": "StatefulPartitionedCall/sequential/bidirectional/backward_lstm/PartitionedCall/while/StatefulPartitionedCall/sequential/bidirectional/backward_lstm/PartitionedCall/TensorArrayV2_1_switch/_225", "op": "Switch", "input": ["StatefulPartitionedCall/sequential/bidirectional/backward_lstm/PartitionedCall/while/merge/_213", "StatefulPartitionedCall/sequential/bidirectional/backward_lstm/PartitionedCall/while/LoopCond/_221"], "attr": {"T": {"type": "DT_VARIANT"}}}, {"name": "StatefulPartitionedCall/sequential/bidirectional/backward_lstm/PartitionedCall/while/StatefulPartitionedCall/sequential/bidirectional/backward_lstm/PartitionedCall/strided_slice_switch/_228", "op": "Switch", "input": ["StatefulPartitionedCall/sequential/bidirectional/backward_lstm/PartitionedCall/while/merge/_216", "StatefulPartitionedCall/sequential/bidirectional/backward_lstm/PartitionedCall/while/LoopCond/_221"], "attr": {"T": {"type": "DT_INT32"}}}, {"name": "StatefulPartitionedCall/sequential/bidirectional/forward_lstm/PartitionedCall/while/loop_body_control/_173", "op": "Identity", "input": ["StatefulPartitionedCall/sequential/bidirectional/forward_lstm/PartitionedCall/while/StatefulPartitionedCall/sequential/bidirectional/forward_lstm/PartitionedCall/while/loop_counter_switch/_162:1"], "attr": {"T": {"type": "DT_INT32"}}}, {"name": "StatefulPartitionedCall/sequential/bidirectional/forward_lstm/PartitionedCall/while/exit/_177", "op": "Exit", "input": ["StatefulPartitionedCall/sequential/bidirectional/forward_lstm/PartitionedCall/while/StatefulPartitionedCall/sequential/bidirectional/forward_lstm/PartitionedCall/TensorArrayV2_1_switch/_165"], "attr": {"T": {"type": "DT_VARIANT"}}}, {"name": "StatefulPartitionedCall/sequential/bidirectional/backward_lstm/PartitionedCall/while/loop_body_control/_233", "op": "Identity", "input": ["StatefulPartitionedCall/sequential/bidirectional/backward_lstm/PartitionedCall/while/StatefulPartitionedCall/sequential/bidirectional/backward_lstm/PartitionedCall/while/loop_counter_switch/_222:1"], "attr": {"T": {"type": "DT_INT32"}}}, {"name": "StatefulPartitionedCall/sequential/bidirectional/backward_lstm/PartitionedCall/while/exit/_237", "op": "Exit", "input": ["StatefulPartitionedCall/sequential/bidirectional/backward_lstm/PartitionedCall/while/StatefulPartitionedCall/sequential/bidirectional/backward_lstm/PartitionedCall/TensorArrayV2_1_switch/_225"], "attr": {"T": {"type": "DT_VARIANT"}}}, {"name": "StatefulPartitionedCall/sequential/bidirectional/forward_lstm/PartitionedCall/while/body/_138/while/split/split_dim", "op": "Const", "input": ["^StatefulPartitionedCall/sequential/bidirectional/forward_lstm/PartitionedCall/while/loop_body_control/_173"], "attr": {"dtype": {"type": "DT_INT32"}, "value": {"tensor": {"dtype": "DT_INT32", "tensorShape": {}}}}}, {"name": "StatefulPartitionedCall/sequential/bidirectional/forward_lstm/PartitionedCall/while/next_iteration/_193", "op": "NextIteration", "input": ["StatefulPartitionedCall/sequential/bidirectional/forward_lstm/PartitionedCall/while/StatefulPartitionedCall/sequential/bidirectional/forward_lstm/PartitionedCall/TensorArrayUnstack/TensorListFromTensor_switch/_169:1", "^StatefulPartitionedCall/sequential/bidirectional/forward_lstm/PartitionedCall/while/loop_body_control/_173"], "attr": {"T": {"type": "DT_VARIANT"}}}, {"name": "StatefulPartitionedCall/sequential/bidirectional/forward_lstm/PartitionedCall/while/body/_138/while/TensorArrayV2Read/TensorListGetItem/element_shape", "op": "Const", "input": ["^StatefulPartitionedCall/sequential/bidirectional/forward_lstm/PartitionedCall/while/loop_body_control/_173"], "attr": {"dtype": {"type": "DT_INT32"}, "value": {"tensor": {"dtype": "DT_INT32", "tensorShape": {"dim": [{"size": "2"}]}}}}}, {"name": "StatefulPartitionedCall/sequential/bidirectional/forward_lstm/PartitionedCall/while/next_iteration/_194", "op": "NextIteration", "input": ["StatefulPartitionedCall/sequential/bidirectional/forward_lstm/PartitionedCall/while/Func/StatefulPartitionedCall/sequential/bidirectional/forward_lstm/PartitionedCall/input/_74_switch/_170:1", "^StatefulPartitionedCall/sequential/bidirectional/forward_lstm/PartitionedCall/while/loop_body_control/_173"], "attr": {"T": {"type": "DT_FLOAT"}}}, {"name": "StatefulPartitionedCall/sequential/bidirectional/forward_lstm/PartitionedCall/while/next_iteration/_195", "op": "NextIteration", "input": ["StatefulPartitionedCall/sequential/bidirectional/forward_lstm/PartitionedCall/while/Func/StatefulPartitionedCall/sequential/bidirectional/forward_lstm/PartitionedCall/input/_75_switch/_171:1", "^StatefulPartitionedCall/sequential/bidirectional/forward_lstm/PartitionedCall/while/loop_body_control/_173"], "attr": {"T": {"type": "DT_FLOAT"}}}, {"name": "StatefulPartitionedCall/sequential/bidirectional/forward_lstm/PartitionedCall/while/body/_138/while/MatMul_1", "op": "MatMul", "input": ["StatefulPartitionedCall/sequential/bidirectional/forward_lstm/PartitionedCall/while/Func/StatefulPartitionedCall/sequential/bidirectional/forward_lstm/PartitionedCall/input/_72_switch/_166:1", "StatefulPartitionedCall/sequential/bidirectional/forward_lstm/PartitionedCall/while/Func/StatefulPartitionedCall/sequential/bidirectional/forward_lstm/PartitionedCall/input/_75_switch/_171:1", "^StatefulPartitionedCall/sequential/bidirectional/forward_lstm/PartitionedCall/while/loop_body_control/_173"], "device": "/device:CPU:0", "attr": {"transpose_a": {"b": false}, "T": {"type": "DT_FLOAT"}, "transpose_b": {"b": false}}}, {"name": "StatefulPartitionedCall/sequential/bidirectional/forward_lstm/PartitionedCall/while/next_iteration/_196", "op": "NextIteration", "input": ["StatefulPartitionedCall/sequential/bidirectional/forward_lstm/PartitionedCall/while/Func/StatefulPartitionedCall/sequential/bidirectional/forward_lstm/PartitionedCall/input/_76_switch/_172:1", "^StatefulPartitionedCall/sequential/bidirectional/forward_lstm/PartitionedCall/while/loop_body_control/_173"], "attr": {"T": {"type": "DT_FLOAT"}}}, {"name": "Func/StatefulPartitionedCall/sequential/bidirectional/forward_lstm/PartitionedCall/while/body/_138/input/_513", "op": "Identity", "input": ["StatefulPartitionedCall/sequential/bidirectional/forward_lstm/PartitionedCall/while/StatefulPartitionedCall/sequential/bidirectional/forward_lstm/PartitionedCall/time_switch/_164:1", "^StatefulPartitionedCall/sequential/bidirectional/forward_lstm/PartitionedCall/while/loop_body_control/_173"], "attr": {"T": {"type": "DT_INT32"}}}, {"name": "StatefulPartitionedCall/sequential/bidirectional/forward_lstm/PartitionedCall/while/body/_138/while/add_2/y", "op": "Const", "input": ["^StatefulPartitionedCall/sequential/bidirectional/forward_lstm/PartitionedCall/while/loop_body_control/_173"], "attr": {"dtype": {"type": "DT_INT32"}, "value": {"tensor": {"dtype": "DT_INT32", "tensorShape": {}}}}}, {"name": "StatefulPartitionedCall/sequential/bidirectional/forward_lstm/PartitionedCall/while/body/_138/while/add_3/y", "op": "Const", "input": ["^StatefulPartitionedCall/sequential/bidirectional/forward_lstm/PartitionedCall/while/loop_body_control/_173"], "attr": {"dtype": {"type": "DT_INT32"}, "value": {"tensor": {"dtype": "DT_INT32", "tensorShape": {}}}}}, {"name": "StatefulPartitionedCall/sequential/bidirectional/forward_lstm/PartitionedCall/while/next_iteration/_192", "op": "NextIteration", "input": ["StatefulPartitionedCall/sequential/bidirectional/forward_lstm/PartitionedCall/while/StatefulPartitionedCall/sequential/bidirectional/forward_lstm/PartitionedCall/strided_slice_switch/_168:1", "^StatefulPartitionedCall/sequential/bidirectional/forward_lstm/PartitionedCall/while/loop_body_control/_173"], "attr": {"T": {"type": "DT_INT32"}}}, {"name": "StatefulPartitionedCall/sequential/bidirectional/forward_lstm/PartitionedCall/TensorArrayV2Stack/TensorListStack", "op": "TensorListStack", "input": ["StatefulPartitionedCall/sequential/bidirectional/forward_lstm/PartitionedCall/while/exit/_177", "StatefulPartitionedCall/sequential/bidirectional/forward_lstm/PartitionedCall/TensorArrayV2Stack/TensorListStack/element_shape"], "attr": {"num_elements": {"i": "-1"}, "element_dtype": {"type": "DT_FLOAT"}}}, {"name": "StatefulPartitionedCall/sequential/bidirectional/backward_lstm/PartitionedCall/while/body/_198/while/split/split_dim", "op": "Const", "input": ["^StatefulPartitionedCall/sequential/bidirectional/backward_lstm/PartitionedCall/while/loop_body_control/_233"], "attr": {"dtype": {"type": "DT_INT32"}, "value": {"tensor": {"dtype": "DT_INT32", "tensorShape": {}}}}}, {"name": "StatefulPartitionedCall/sequential/bidirectional/backward_lstm/PartitionedCall/while/next_iteration/_253", "op": "NextIteration", "input": ["StatefulPartitionedCall/sequential/bidirectional/backward_lstm/PartitionedCall/while/StatefulPartitionedCall/sequential/bidirectional/backward_lstm/PartitionedCall/TensorArrayUnstack/TensorListFromTensor_switch/_229:1", "^StatefulPartitionedCall/sequential/bidirectional/backward_lstm/PartitionedCall/while/loop_body_control/_233"], "attr": {"T": {"type": "DT_VARIANT"}}}, {"name": "StatefulPartitionedCall/sequential/bidirectional/backward_lstm/PartitionedCall/while/body/_198/while/TensorArrayV2Read/TensorListGetItem/element_shape", "op": "Const", "input": ["^StatefulPartitionedCall/sequential/bidirectional/backward_lstm/PartitionedCall/while/loop_body_control/_233"], "attr": {"dtype": {"type": "DT_INT32"}, "value": {"tensor": {"dtype": "DT_INT32", "tensorShape": {"dim": [{"size": "2"}]}}}}}, {"name": "StatefulPartitionedCall/sequential/bidirectional/backward_lstm/PartitionedCall/while/next_iteration/_254", "op": "NextIteration", "input": ["StatefulPartitionedCall/sequential/bidirectional/backward_lstm/PartitionedCall/while/Func/StatefulPartitionedCall/sequential/bidirectional/backward_lstm/PartitionedCall/input/_85_switch/_230:1", "^StatefulPartitionedCall/sequential/bidirectional/backward_lstm/PartitionedCall/while/loop_body_control/_233"], "attr": {"T": {"type": "DT_FLOAT"}}}, {"name": "StatefulPartitionedCall/sequential/bidirectional/backward_lstm/PartitionedCall/while/next_iteration/_255", "op": "NextIteration", "input": ["StatefulPartitionedCall/sequential/bidirectional/backward_lstm/PartitionedCall/while/Func/StatefulPartitionedCall/sequential/bidirectional/backward_lstm/PartitionedCall/input/_86_switch/_231:1", "^StatefulPartitionedCall/sequential/bidirectional/backward_lstm/PartitionedCall/while/loop_body_control/_233"], "attr": {"T": {"type": "DT_FLOAT"}}}, {"name": "StatefulPartitionedCall/sequential/bidirectional/backward_lstm/PartitionedCall/while/body/_198/while/MatMul_1", "op": "MatMul", "input": ["StatefulPartitionedCall/sequential/bidirectional/backward_lstm/PartitionedCall/while/Func/StatefulPartitionedCall/sequential/bidirectional/backward_lstm/PartitionedCall/input/_83_switch/_226:1", "StatefulPartitionedCall/sequential/bidirectional/backward_lstm/PartitionedCall/while/Func/StatefulPartitionedCall/sequential/bidirectional/backward_lstm/PartitionedCall/input/_86_switch/_231:1", "^StatefulPartitionedCall/sequential/bidirectional/backward_lstm/PartitionedCall/while/loop_body_control/_233"], "device": "/device:CPU:0", "attr": {"transpose_a": {"b": false}, "T": {"type": "DT_FLOAT"}, "transpose_b": {"b": false}}}, {"name": "StatefulPartitionedCall/sequential/bidirectional/backward_lstm/PartitionedCall/while/next_iteration/_256", "op": "NextIteration", "input": ["StatefulPartitionedCall/sequential/bidirectional/backward_lstm/PartitionedCall/while/Func/StatefulPartitionedCall/sequential/bidirectional/backward_lstm/PartitionedCall/input/_87_switch/_232:1", "^StatefulPartitionedCall/sequential/bidirectional/backward_lstm/PartitionedCall/while/loop_body_control/_233"], "attr": {"T": {"type": "DT_FLOAT"}}}, {"name": "Func/StatefulPartitionedCall/sequential/bidirectional/backward_lstm/PartitionedCall/while/body/_198/input/_550", "op": "Identity", "input": ["StatefulPartitionedCall/sequential/bidirectional/backward_lstm/PartitionedCall/while/StatefulPartitionedCall/sequential/bidirectional/backward_lstm/PartitionedCall/time_switch/_224:1", "^StatefulPartitionedCall/sequential/bidirectional/backward_lstm/PartitionedCall/while/loop_body_control/_233"], "attr": {"T": {"type": "DT_INT32"}}}, {"name": "StatefulPartitionedCall/sequential/bidirectional/backward_lstm/PartitionedCall/while/body/_198/while/add_2/y", "op": "Const", "input": ["^StatefulPartitionedCall/sequential/bidirectional/backward_lstm/PartitionedCall/while/loop_body_control/_233"], "attr": {"dtype": {"type": "DT_INT32"}, "value": {"tensor": {"dtype": "DT_INT32", "tensorShape": {}}}}}, {"name": "StatefulPartitionedCall/sequential/bidirectional/backward_lstm/PartitionedCall/while/body/_198/while/add_3/y", "op": "Const", "input": ["^StatefulPartitionedCall/sequential/bidirectional/backward_lstm/PartitionedCall/while/loop_body_control/_233"], "attr": {"dtype": {"type": "DT_INT32"}, "value": {"tensor": {"dtype": "DT_INT32", "tensorShape": {}}}}}, {"name": "StatefulPartitionedCall/sequential/bidirectional/backward_lstm/PartitionedCall/while/next_iteration/_252", "op": "NextIteration", "input": ["StatefulPartitionedCall/sequential/bidirectional/backward_lstm/PartitionedCall/while/StatefulPartitionedCall/sequential/bidirectional/backward_lstm/PartitionedCall/strided_slice_switch/_228:1", "^StatefulPartitionedCall/sequential/bidirectional/backward_lstm/PartitionedCall/while/loop_body_control/_233"], "attr": {"T": {"type": "DT_INT32"}}}, {"name": "StatefulPartitionedCall/sequential/bidirectional/backward_lstm/PartitionedCall/TensorArrayV2Stack/TensorListStack", "op": "TensorListStack", "input": ["StatefulPartitionedCall/sequential/bidirectional/backward_lstm/PartitionedCall/while/exit/_237", "StatefulPartitionedCall/sequential/bidirectional/backward_lstm/PartitionedCall/TensorArrayV2Stack/TensorListStack/element_shape"], "attr": {"element_dtype": {"type": "DT_FLOAT"}, "num_elements": {"i": "-1"}}}, {"name": "StatefulPartitionedCall/sequential/bidirectional/forward_lstm/PartitionedCall/while/body/_138/while/TensorArrayV2Read/TensorListGetItem", "op": "TensorListGetItem", "input": ["StatefulPartitionedCall/sequential/bidirectional/forward_lstm/PartitionedCall/while/StatefulPartitionedCall/sequential/bidirectional/forward_lstm/PartitionedCall/TensorArrayUnstack/TensorListFromTensor_switch/_169:1", "Func/StatefulPartitionedCall/sequential/bidirectional/forward_lstm/PartitionedCall/while/body/_138/input/_513", "StatefulPartitionedCall/sequential/bidirectional/forward_lstm/PartitionedCall/while/body/_138/while/TensorArrayV2Read/TensorListGetItem/element_shape"], "attr": {"element_dtype": {"type": "DT_FLOAT"}}}, {"name": "StatefulPartitionedCall/sequential/bidirectional/forward_lstm/PartitionedCall/while/body/_138/while/add_2", "op": "AddV2", "input": ["Func/StatefulPartitionedCall/sequential/bidirectional/forward_lstm/PartitionedCall/while/body/_138/input/_513", "StatefulPartitionedCall/sequential/bidirectional/forward_lstm/PartitionedCall/while/body/_138/while/add_2/y"], "attr": {"T": {"type": "DT_INT32"}}}, {"name": "StatefulPartitionedCall/sequential/bidirectional/forward_lstm/PartitionedCall/while/body/_138/while/add_3", "op": "AddV2", "input": ["StatefulPartitionedCall/sequential/bidirectional/forward_lstm/PartitionedCall/while/StatefulPartitionedCall/sequential/bidirectional/forward_lstm/PartitionedCall/while/loop_counter_switch/_162:1", "StatefulPartitionedCall/sequential/bidirectional/forward_lstm/PartitionedCall/while/body/_138/while/add_3/y"], "attr": {"T": {"type": "DT_INT32"}}}, {"name": "StatefulPartitionedCall/sequential/bidirectional/forward_lstm/PartitionedCall/transpose_1", "op": "Transpose", "input": ["StatefulPartitionedCall/sequential/bidirectional/forward_lstm/PartitionedCall/TensorArrayV2Stack/TensorListStack", "StatefulPartitionedCall/sequential/bidirectional/forward_lstm/PartitionedCall/transpose_1/perm"], "attr": {"T": {"type": "DT_FLOAT"}, "Tperm": {"type": "DT_INT32"}}}, {"name": "StatefulPartitionedCall/sequential/bidirectional/backward_lstm/PartitionedCall/while/body/_198/while/TensorArrayV2Read/TensorListGetItem", "op": "TensorListGetItem", "input": ["StatefulPartitionedCall/sequential/bidirectional/backward_lstm/PartitionedCall/while/StatefulPartitionedCall/sequential/bidirectional/backward_lstm/PartitionedCall/TensorArrayUnstack/TensorListFromTensor_switch/_229:1", "Func/StatefulPartitionedCall/sequential/bidirectional/backward_lstm/PartitionedCall/while/body/_198/input/_550", "StatefulPartitionedCall/sequential/bidirectional/backward_lstm/PartitionedCall/while/body/_198/while/TensorArrayV2Read/TensorListGetItem/element_shape"], "attr": {"element_dtype": {"type": "DT_FLOAT"}}}, {"name": "StatefulPartitionedCall/sequential/bidirectional/backward_lstm/PartitionedCall/while/body/_198/while/add_2", "op": "AddV2", "input": ["Func/StatefulPartitionedCall/sequential/bidirectional/backward_lstm/PartitionedCall/while/body/_198/input/_550", "StatefulPartitionedCall/sequential/bidirectional/backward_lstm/PartitionedCall/while/body/_198/while/add_2/y"], "attr": {"T": {"type": "DT_INT32"}}}, {"name": "StatefulPartitionedCall/sequential/bidirectional/backward_lstm/PartitionedCall/while/body/_198/while/add_3", "op": "AddV2", "input": ["StatefulPartitionedCall/sequential/bidirectional/backward_lstm/PartitionedCall/while/StatefulPartitionedCall/sequential/bidirectional/backward_lstm/PartitionedCall/while/loop_counter_switch/_222:1", "StatefulPartitionedCall/sequential/bidirectional/backward_lstm/PartitionedCall/while/body/_198/while/add_3/y"], "attr": {"T": {"type": "DT_INT32"}}}, {"name": "StatefulPartitionedCall/sequential/bidirectional/backward_lstm/PartitionedCall/transpose_1", "op": "Transpose", "input": ["StatefulPartitionedCall/sequential/bidirectional/backward_lstm/PartitionedCall/TensorArrayV2Stack/TensorListStack", "StatefulPartitionedCall/sequential/bidirectional/backward_lstm/PartitionedCall/transpose_1/perm"], "attr": {"T": {"type": "DT_FLOAT"}, "Tperm": {"type": "DT_INT32"}}}, {"name": "StatefulPartitionedCall/sequential/bidirectional/forward_lstm/PartitionedCall/while/body/_138/while/MatMul", "op": "MatMul", "input": ["StatefulPartitionedCall/sequential/bidirectional/forward_lstm/PartitionedCall/while/body/_138/while/TensorArrayV2Read/TensorListGetItem", "StatefulPartitionedCall/sequential/bidirectional/forward_lstm/PartitionedCall/while/Func/StatefulPartitionedCall/sequential/bidirectional/forward_lstm/PartitionedCall/input/_74_switch/_170:1"], "device": "/device:CPU:0", "attr": {"T": {"type": "DT_FLOAT"}, "transpose_a": {"b": false}, "transpose_b": {"b": false}}}, {"name": "StatefulPartitionedCall/sequential/bidirectional/forward_lstm/PartitionedCall/while/next_iteration/_188", "op": "NextIteration", "input": ["StatefulPartitionedCall/sequential/bidirectional/forward_lstm/PartitionedCall/while/body/_138/while/add_2", "^StatefulPartitionedCall/sequential/bidirectional/forward_lstm/PartitionedCall/while/loop_body_control/_173"], "attr": {"T": {"type": "DT_INT32"}}}, {"name": "StatefulPartitionedCall/sequential/bidirectional/forward_lstm/PartitionedCall/while/next_iteration/_186", "op": "NextIteration", "input": ["StatefulPartitionedCall/sequential/bidirectional/forward_lstm/PartitionedCall/while/body/_138/while/add_3", "^StatefulPartitionedCall/sequential/bidirectional/forward_lstm/PartitionedCall/while/loop_body_control/_173"], "attr": {"T": {"type": "DT_INT32"}}}, {"name": "StatefulPartitionedCall/sequential/bidirectional/backward_lstm/PartitionedCall/while/body/_198/while/MatMul", "op": "MatMul", "input": ["StatefulPartitionedCall/sequential/bidirectional/backward_lstm/PartitionedCall/while/body/_198/while/TensorArrayV2Read/TensorListGetItem", "StatefulPartitionedCall/sequential/bidirectional/backward_lstm/PartitionedCall/while/Func/StatefulPartitionedCall/sequential/bidirectional/backward_lstm/PartitionedCall/input/_85_switch/_230:1"], "device": "/device:CPU:0", "attr": {"transpose_b": {"b": false}, "T": {"type": "DT_FLOAT"}, "transpose_a": {"b": false}}}, {"name": "StatefulPartitionedCall/sequential/bidirectional/backward_lstm/PartitionedCall/while/next_iteration/_248", "op": "NextIteration", "input": ["StatefulPartitionedCall/sequential/bidirectional/backward_lstm/PartitionedCall/while/body/_198/while/add_2", "^StatefulPartitionedCall/sequential/bidirectional/backward_lstm/PartitionedCall/while/loop_body_control/_233"], "attr": {"T": {"type": "DT_INT32"}}}, {"name": "StatefulPartitionedCall/sequential/bidirectional/backward_lstm/PartitionedCall/while/next_iteration/_246", "op": "NextIteration", "input": ["StatefulPartitionedCall/sequential/bidirectional/backward_lstm/PartitionedCall/while/body/_198/while/add_3", "^StatefulPartitionedCall/sequential/bidirectional/backward_lstm/PartitionedCall/while/loop_body_control/_233"], "attr": {"T": {"type": "DT_INT32"}}}, {"name": "StatefulPartitionedCall/sequential/bidirectional/ReverseV2", "op": "ReverseV2", "input": ["StatefulPartitionedCall/sequential/bidirectional/backward_lstm/PartitionedCall/transpose_1", "StatefulPartitionedCall/sequential/bidirectional/ReverseV2/axis"], "attr": {"Tidx": {"type": "DT_INT32"}, "T": {"type": "DT_FLOAT"}}}, {"name": "StatefulPartitionedCall/sequential/bidirectional/forward_lstm/PartitionedCall/while/body/_138/while/add", "op": "AddV2", "input": ["StatefulPartitionedCall/sequential/bidirectional/forward_lstm/PartitionedCall/while/body/_138/while/MatMul", "StatefulPartitionedCall/sequential/bidirectional/forward_lstm/PartitionedCall/while/body/_138/while/MatMul_1"], "attr": {"T": {"type": "DT_FLOAT"}}}, {"name": "StatefulPartitionedCall/sequential/bidirectional/backward_lstm/PartitionedCall/while/body/_198/while/add", "op": "AddV2", "input": ["StatefulPartitionedCall/sequential/bidirectional/backward_lstm/PartitionedCall/while/body/_198/while/MatMul", "StatefulPartitionedCall/sequential/bidirectional/backward_lstm/PartitionedCall/while/body/_198/while/MatMul_1"], "attr": {"T": {"type": "DT_FLOAT"}}}, {"name": "StatefulPartitionedCall/sequential/bidirectional/concat", "op": "ConcatV2", "input": ["StatefulPartitionedCall/sequential/bidirectional/forward_lstm/PartitionedCall/transpose_1", "StatefulPartitionedCall/sequential/bidirectional/ReverseV2", "StatefulPartitionedCall/sequential/bidirectional/concat/axis"], "attr": {"Tidx": {"type": "DT_INT32"}, "N": {"i": "2"}, "T": {"type": "DT_FLOAT"}}}, {"name": "StatefulPartitionedCall/sequential/bidirectional/forward_lstm/PartitionedCall/while/body/_138/while/BiasAdd", "op": "BiasAdd", "input": ["StatefulPartitionedCall/sequential/bidirectional/forward_lstm/PartitionedCall/while/body/_138/while/add", "StatefulPartitionedCall/sequential/bidirectional/forward_lstm/PartitionedCall/while/Func/StatefulPartitionedCall/sequential/bidirectional/forward_lstm/PartitionedCall/input/_76_switch/_172:1"], "attr": {"T": {"type": "DT_FLOAT"}, "data_format": {"s": "TkhXQw=="}}}, {"name": "StatefulPartitionedCall/sequential/bidirectional/backward_lstm/PartitionedCall/while/body/_198/while/BiasAdd", "op": "BiasAdd", "input": ["StatefulPartitionedCall/sequential/bidirectional/backward_lstm/PartitionedCall/while/body/_198/while/add", "StatefulPartitionedCall/sequential/bidirectional/backward_lstm/PartitionedCall/while/Func/StatefulPartitionedCall/sequential/bidirectional/backward_lstm/PartitionedCall/input/_87_switch/_232:1"], "attr": {"T": {"type": "DT_FLOAT"}, "data_format": {"s": "TkhXQw=="}}}, {"name": "StatefulPartitionedCall/sequential/batch_normalization_3/batchnorm/mul_1", "op": "Mul", "input": ["StatefulPartitionedCall/sequential/bidirectional/concat", "StatefulPartitionedCall/sequential/batch_normalization_3/batchnorm/mul"], "attr": {"T": {"type": "DT_FLOAT"}}}, {"name": "StatefulPartitionedCall/sequential/bidirectional/forward_lstm/PartitionedCall/while/body/_138/while/split", "op": "Split", "input": ["StatefulPartitionedCall/sequential/bidirectional/forward_lstm/PartitionedCall/while/body/_138/while/split/split_dim", "StatefulPartitionedCall/sequential/bidirectional/forward_lstm/PartitionedCall/while/body/_138/while/BiasAdd"], "attr": {"num_split": {"i": "4"}, "T": {"type": "DT_FLOAT"}}}, {"name": "StatefulPartitionedCall/sequential/bidirectional/backward_lstm/PartitionedCall/while/body/_198/while/split", "op": "Split", "input": ["StatefulPartitionedCall/sequential/bidirectional/backward_lstm/PartitionedCall/while/body/_198/while/split/split_dim", "StatefulPartitionedCall/sequential/bidirectional/backward_lstm/PartitionedCall/while/body/_198/while/BiasAdd"], "attr": {"T": {"type": "DT_FLOAT"}, "num_split": {"i": "4"}}}, {"name": "StatefulPartitionedCall/sequential/batch_normalization_3/batchnorm/add_1", "op": "AddV2", "input": ["StatefulPartitionedCall/sequential/batch_normalization_3/batchnorm/mul_1", "StatefulPartitionedCall/sequential/batch_normalization_3/batchnorm/sub"], "attr": {"T": {"type": "DT_FLOAT"}}}, {"name": "StatefulPartitionedCall/sequential/bidirectional/forward_lstm/PartitionedCall/while/body/_138/while/Sigmoid", "op": "Sigmoid", "input": ["StatefulPartitionedCall/sequential/bidirectional/forward_lstm/PartitionedCall/while/body/_138/while/split"], "attr": {"T": {"type": "DT_FLOAT"}}}, {"name": "StatefulPartitionedCall/sequential/bidirectional/forward_lstm/PartitionedCall/while/body/_138/while/Sigmoid_1", "op": "Sigmoid", "input": ["StatefulPartitionedCall/sequential/bidirectional/forward_lstm/PartitionedCall/while/body/_138/while/split:1"], "attr": {"T": {"type": "DT_FLOAT"}}}, {"name": "StatefulPartitionedCall/sequential/bidirectional/forward_lstm/PartitionedCall/while/body/_138/while/Tanh", "op": "Tanh", "input": ["StatefulPartitionedCall/sequential/bidirectional/forward_lstm/PartitionedCall/while/body/_138/while/split:2"], "attr": {"T": {"type": "DT_FLOAT"}}}, {"name": "StatefulPartitionedCall/sequential/bidirectional/forward_lstm/PartitionedCall/while/body/_138/while/Sigmoid_2", "op": "Sigmoid", "input": ["StatefulPartitionedCall/sequential/bidirectional/forward_lstm/PartitionedCall/while/body/_138/while/split:3"], "attr": {"T": {"type": "DT_FLOAT"}}}, {"name": "StatefulPartitionedCall/sequential/bidirectional/backward_lstm/PartitionedCall/while/body/_198/while/Sigmoid", "op": "Sigmoid", "input": ["StatefulPartitionedCall/sequential/bidirectional/backward_lstm/PartitionedCall/while/body/_198/while/split"], "attr": {"T": {"type": "DT_FLOAT"}}}, {"name": "StatefulPartitionedCall/sequential/bidirectional/backward_lstm/PartitionedCall/while/body/_198/while/Sigmoid_1", "op": "Sigmoid", "input": ["StatefulPartitionedCall/sequential/bidirectional/backward_lstm/PartitionedCall/while/body/_198/while/split:1"], "attr": {"T": {"type": "DT_FLOAT"}}}, {"name": "StatefulPartitionedCall/sequential/bidirectional/backward_lstm/PartitionedCall/while/body/_198/while/Tanh", "op": "Tanh", "input": ["StatefulPartitionedCall/sequential/bidirectional/backward_lstm/PartitionedCall/while/body/_198/while/split:2"], "attr": {"T": {"type": "DT_FLOAT"}}}, {"name": "StatefulPartitionedCall/sequential/bidirectional/backward_lstm/PartitionedCall/while/body/_198/while/Sigmoid_2", "op": "Sigmoid", "input": ["StatefulPartitionedCall/sequential/bidirectional/backward_lstm/PartitionedCall/while/body/_198/while/split:3"], "attr": {"T": {"type": "DT_FLOAT"}}}, {"name": "StatefulPartitionedCall/sequential/bidirectional_1/forward_lstm_1/Shape", "op": "Shape", "input": ["StatefulPartitionedCall/sequential/batch_normalization_3/batchnorm/add_1"], "attr": {"T": {"type": "DT_FLOAT"}, "out_type": {"type": "DT_INT32"}}}, {"name": "StatefulPartitionedCall/sequential/bidirectional_1/forward_lstm_1/PartitionedCall/transpose", "op": "Transpose", "input": ["StatefulPartitionedCall/sequential/batch_normalization_3/batchnorm/add_1", "StatefulPartitionedCall/sequential/bidirectional_1/forward_lstm_1/PartitionedCall/transpose/perm"], "attr": {"T": {"type": "DT_FLOAT"}, "Tperm": {"type": "DT_INT32"}}}, {"name": "StatefulPartitionedCall/sequential/bidirectional_1/backward_lstm_1/Shape", "op": "Shape", "input": ["StatefulPartitionedCall/sequential/batch_normalization_3/batchnorm/add_1"], "attr": {"out_type": {"type": "DT_INT32"}, "T": {"type": "DT_FLOAT"}}}, {"name": "StatefulPartitionedCall/sequential/bidirectional_1/backward_lstm_1/PartitionedCall/transpose", "op": "Transpose", "input": ["StatefulPartitionedCall/sequential/batch_normalization_3/batchnorm/add_1", "StatefulPartitionedCall/sequential/bidirectional_1/backward_lstm_1/PartitionedCall/transpose/perm"], "attr": {"T": {"type": "DT_FLOAT"}, "Tperm": {"type": "DT_INT32"}}}, {"name": "StatefulPartitionedCall/sequential/bidirectional/forward_lstm/PartitionedCall/while/body/_138/while/mul", "op": "Mul", "input": ["StatefulPartitionedCall/sequential/bidirectional/forward_lstm/PartitionedCall/while/body/_138/while/Sigmoid_1", "StatefulPartitionedCall/sequential/bidirectional/forward_lstm/PartitionedCall/while/Func/StatefulPartitionedCall/sequential/bidirectional/forward_lstm/PartitionedCall/input/_73_switch/_167:1"], "attr": {"T": {"type": "DT_FLOAT"}}}, {"name": "StatefulPartitionedCall/sequential/bidirectional/forward_lstm/PartitionedCall/while/body/_138/while/mul_1", "op": "Mul", "input": ["StatefulPartitionedCall/sequential/bidirectional/forward_lstm/PartitionedCall/while/body/_138/while/Sigmoid", "StatefulPartitionedCall/sequential/bidirectional/forward_lstm/PartitionedCall/while/body/_138/while/Tanh"], "attr": {"T": {"type": "DT_FLOAT"}}}, {"name": "StatefulPartitionedCall/sequential/bidirectional/backward_lstm/PartitionedCall/while/body/_198/while/mul", "op": "Mul", "input": ["StatefulPartitionedCall/sequential/bidirectional/backward_lstm/PartitionedCall/while/body/_198/while/Sigmoid_1", "StatefulPartitionedCall/sequential/bidirectional/backward_lstm/PartitionedCall/while/Func/StatefulPartitionedCall/sequential/bidirectional/backward_lstm/PartitionedCall/input/_84_switch/_227:1"], "attr": {"T": {"type": "DT_FLOAT"}}}, {"name": "StatefulPartitionedCall/sequential/bidirectional/backward_lstm/PartitionedCall/while/body/_198/while/mul_1", "op": "Mul", "input": ["StatefulPartitionedCall/sequential/bidirectional/backward_lstm/PartitionedCall/while/body/_198/while/Sigmoid", "StatefulPartitionedCall/sequential/bidirectional/backward_lstm/PartitionedCall/while/body/_198/while/Tanh"], "attr": {"T": {"type": "DT_FLOAT"}}}, {"name": "StatefulPartitionedCall/sequential/bidirectional_1/forward_lstm_1/strided_slice", "op": "StridedSlice", "input": ["StatefulPartitionedCall/sequential/bidirectional_1/forward_lstm_1/Shape", "StatefulPartitionedCall/sequential/bidirectional_1/forward_lstm_1/strided_slice/stack", "StatefulPartitionedCall/sequential/bidirectional_1/forward_lstm_1/strided_slice/stack_1", "StatefulPartitionedCall/sequential/bidirectional_1/forward_lstm_1/strided_slice/stack_2"], "attr": {"ellipsis_mask": {"i": "0"}, "T": {"type": "DT_INT32"}, "shrink_axis_mask": {"i": "1"}, "Index": {"type": "DT_INT32"}, "end_mask": {"i": "0"}, "new_axis_mask": {"i": "0"}, "begin_mask": {"i": "0"}}}, {"name": "StatefulPartitionedCall/sequential/bidirectional_1/forward_lstm_1/PartitionedCall/TensorArrayUnstack/TensorListFromTensor", "op": "TensorListFromTensor", "input": ["StatefulPartitionedCall/sequential/bidirectional_1/forward_lstm_1/PartitionedCall/transpose", "StatefulPartitionedCall/sequential/bidirectional_1/forward_lstm_1/PartitionedCall/TensorArrayUnstack/TensorListFromTensor/element_shape"], "attr": {"element_dtype": {"type": "DT_FLOAT"}, "shape_type": {"type": "DT_INT32"}}, "experimentalType": {"typeId": "TFT_PRODUCT", "args": [{"typeId": "TFT_ARRAY", "args": [{"typeId": "TFT_TENSOR", "args": [{"typeId": "TFT_FLOAT"}]}]}]}}, {"name": "StatefulPartitionedCall/sequential/bidirectional_1/forward_lstm_1/PartitionedCall/Shape", "op": "Shape", "input": ["StatefulPartitionedCall/sequential/bidirectional_1/forward_lstm_1/PartitionedCall/transpose"], "attr": {"T": {"type": "DT_FLOAT"}, "out_type": {"type": "DT_INT32"}}}, {"name": "StatefulPartitionedCall/sequential/bidirectional_1/backward_lstm_1/strided_slice", "op": "StridedSlice", "input": ["StatefulPartitionedCall/sequential/bidirectional_1/backward_lstm_1/Shape", "StatefulPartitionedCall/sequential/bidirectional_1/backward_lstm_1/strided_slice/stack", "StatefulPartitionedCall/sequential/bidirectional_1/backward_lstm_1/strided_slice/stack_1", "StatefulPartitionedCall/sequential/bidirectional_1/backward_lstm_1/strided_slice/stack_2"], "attr": {"ellipsis_mask": {"i": "0"}, "T": {"type": "DT_INT32"}, "begin_mask": {"i": "0"}, "shrink_axis_mask": {"i": "1"}, "Index": {"type": "DT_INT32"}, "end_mask": {"i": "0"}, "new_axis_mask": {"i": "0"}}}, {"name": "StatefulPartitionedCall/sequential/bidirectional_1/backward_lstm_1/PartitionedCall/ReverseV2", "op": "ReverseV2", "input": ["StatefulPartitionedCall/sequential/bidirectional_1/backward_lstm_1/PartitionedCall/transpose", "StatefulPartitionedCall/sequential/bidirectional_1/backward_lstm_1/PartitionedCall/ReverseV2/axis"], "attr": {"Tidx": {"type": "DT_INT32"}, "T": {"type": "DT_FLOAT"}}}, {"name": "StatefulPartitionedCall/sequential/bidirectional_1/backward_lstm_1/PartitionedCall/Shape", "op": "Shape", "input": ["StatefulPartitionedCall/sequential/bidirectional_1/backward_lstm_1/PartitionedCall/transpose"], "attr": {"T": {"type": "DT_FLOAT"}, "out_type": {"type": "DT_INT32"}}}, {"name": "StatefulPartitionedCall/sequential/bidirectional/forward_lstm/PartitionedCall/while/body/_138/while/add_1", "op": "AddV2", "input": ["StatefulPartitionedCall/sequential/bidirectional/forward_lstm/PartitionedCall/while/body/_138/while/mul", "StatefulPartitionedCall/sequential/bidirectional/forward_lstm/PartitionedCall/while/body/_138/while/mul_1"], "attr": {"T": {"type": "DT_FLOAT"}}}, {"name": "StatefulPartitionedCall/sequential/bidirectional/backward_lstm/PartitionedCall/while/body/_198/while/add_1", "op": "AddV2", "input": ["StatefulPartitionedCall/sequential/bidirectional/backward_lstm/PartitionedCall/while/body/_198/while/mul", "StatefulPartitionedCall/sequential/bidirectional/backward_lstm/PartitionedCall/while/body/_198/while/mul_1"], "attr": {"T": {"type": "DT_FLOAT"}}}, {"name": "StatefulPartitionedCall/sequential/bidirectional_1/forward_lstm_1/zeros_1/packed", "op": "Pack", "input": ["StatefulPartitionedCall/sequential/bidirectional_1/forward_lstm_1/strided_slice", "StatefulPartitionedCall/sequential/bidirectional_1/forward_lstm_1/zeros_1/packed/1"], "attr": {"axis": {"i": "0"}, "N": {"i": "2"}, "T": {"type": "DT_INT32"}}}, {"name": "StatefulPartitionedCall/sequential/bidirectional_1/forward_lstm_1/zeros/packed", "op": "Pack", "input": ["StatefulPartitionedCall/sequential/bidirectional_1/forward_lstm_1/strided_slice", "StatefulPartitionedCall/sequential/bidirectional_1/forward_lstm_1/zeros/packed/1"], "attr": {"axis": {"i": "0"}, "T": {"type": "DT_INT32"}, "N": {"i": "2"}}}, {"name": "StatefulPartitionedCall/sequential/bidirectional_1/forward_lstm_1/PartitionedCall/while/enter/_266", "op": "Enter", "input": ["StatefulPartitionedCall/sequential/bidirectional_1/forward_lstm_1/PartitionedCall/TensorArrayUnstack/TensorListFromTensor"], "attr": {"parallel_iterations": {"i": "32"}, "frame_name": {"s": "U3RhdGVmdWxQYXJ0aXRpb25lZENhbGwvc2VxdWVudGlhbC9iaWRpcmVjdGlvbmFsXzEvZm9yd2FyZF9sc3RtXzEvUGFydGl0aW9uZWRDYWxsL3doaWxl"}, "is_constant": {"b": false}, "T": {"type": "DT_VARIANT"}}}, {"name": "StatefulPartitionedCall/sequential/bidirectional_1/forward_lstm_1/PartitionedCall/strided_slice", "op": "StridedSlice", "input": ["StatefulPartitionedCall/sequential/bidirectional_1/forward_lstm_1/PartitionedCall/Shape", "StatefulPartitionedCall/sequential/bidirectional_1/forward_lstm_1/PartitionedCall/strided_slice/stack", "StatefulPartitionedCall/sequential/bidirectional_1/forward_lstm_1/PartitionedCall/strided_slice/stack_1", "StatefulPartitionedCall/sequential/bidirectional_1/forward_lstm_1/PartitionedCall/strided_slice/stack_2"], "attr": {"begin_mask": {"i": "0"}, "shrink_axis_mask": {"i": "1"}, "Index": {"type": "DT_INT32"}, "new_axis_mask": {"i": "0"}, "ellipsis_mask": {"i": "0"}, "end_mask": {"i": "0"}, "T": {"type": "DT_INT32"}}}, {"name": "StatefulPartitionedCall/sequential/bidirectional_1/backward_lstm_1/zeros_1/packed", "op": "Pack", "input": ["StatefulPartitionedCall/sequential/bidirectional_1/backward_lstm_1/strided_slice", "StatefulPartitionedCall/sequential/bidirectional_1/backward_lstm_1/zeros_1/packed/1"], "attr": {"N": {"i": "2"}, "axis": {"i": "0"}, "T": {"type": "DT_INT32"}}}, {"name": "StatefulPartitionedCall/sequential/bidirectional_1/backward_lstm_1/zeros/packed", "op": "Pack", "input": ["StatefulPartitionedCall/sequential/bidirectional_1/backward_lstm_1/strided_slice", "StatefulPartitionedCall/sequential/bidirectional_1/backward_lstm_1/zeros/packed/1"], "attr": {"axis": {"i": "0"}, "N": {"i": "2"}, "T": {"type": "DT_INT32"}}}, {"name": "StatefulPartitionedCall/sequential/bidirectional_1/backward_lstm_1/PartitionedCall/TensorArrayUnstack/TensorListFromTensor", "op": "TensorListFromTensor", "input": ["StatefulPartitionedCall/sequential/bidirectional_1/backward_lstm_1/PartitionedCall/ReverseV2", "StatefulPartitionedCall/sequential/bidirectional_1/backward_lstm_1/PartitionedCall/TensorArrayUnstack/TensorListFromTensor/element_shape"], "attr": {"shape_type": {"type": "DT_INT32"}, "element_dtype": {"type": "DT_FLOAT"}}, "experimentalType": {"typeId": "TFT_PRODUCT", "args": [{"typeId": "TFT_ARRAY", "args": [{"typeId": "TFT_TENSOR", "args": [{"typeId": "TFT_FLOAT"}]}]}]}}, {"name": "StatefulPartitionedCall/sequential/bidirectional_1/backward_lstm_1/PartitionedCall/strided_slice", "op": "StridedSlice", "input": ["StatefulPartitionedCall/sequential/bidirectional_1/backward_lstm_1/PartitionedCall/Shape", "StatefulPartitionedCall/sequential/bidirectional_1/backward_lstm_1/PartitionedCall/strided_slice/stack", "StatefulPartitionedCall/sequential/bidirectional_1/backward_lstm_1/PartitionedCall/strided_slice/stack_1", "StatefulPartitionedCall/sequential/bidirectional_1/backward_lstm_1/PartitionedCall/strided_slice/stack_2"], "attr": {"shrink_axis_mask": {"i": "1"}, "begin_mask": {"i": "0"}, "Index": {"type": "DT_INT32"}, "new_axis_mask": {"i": "0"}, "ellipsis_mask": {"i": "0"}, "end_mask": {"i": "0"}, "T": {"type": "DT_INT32"}}}, {"name": "StatefulPartitionedCall/sequential/bidirectional/forward_lstm/PartitionedCall/while/body/_138/while/Tanh_1", "op": "Tanh", "input": ["StatefulPartitionedCall/sequential/bidirectional/forward_lstm/PartitionedCall/while/body/_138/while/add_1"], "attr": {"T": {"type": "DT_FLOAT"}}}, {"name": "StatefulPartitionedCall/sequential/bidirectional/forward_lstm/PartitionedCall/while/next_iteration/_191", "op": "NextIteration", "input": ["StatefulPartitionedCall/sequential/bidirectional/forward_lstm/PartitionedCall/while/body/_138/while/add_1", "^StatefulPartitionedCall/sequential/bidirectional/forward_lstm/PartitionedCall/while/loop_body_control/_173"], "attr": {"T": {"type": "DT_FLOAT"}}}, {"name": "StatefulPartitionedCall/sequential/bidirectional/backward_lstm/PartitionedCall/while/body/_198/while/Tanh_1", "op": "Tanh", "input": ["StatefulPartitionedCall/sequential/bidirectional/backward_lstm/PartitionedCall/while/body/_198/while/add_1"], "attr": {"T": {"type": "DT_FLOAT"}}}, {"name": "StatefulPartitionedCall/sequential/bidirectional/backward_lstm/PartitionedCall/while/next_iteration/_251", "op": "NextIteration", "input": ["StatefulPartitionedCall/sequential/bidirectional/backward_lstm/PartitionedCall/while/body/_198/while/add_1", "^StatefulPartitionedCall/sequential/bidirectional/backward_lstm/PartitionedCall/while/loop_body_control/_233"], "attr": {"T": {"type": "DT_FLOAT"}}}, {"name": "StatefulPartitionedCall/sequential/bidirectional_1/forward_lstm_1/zeros_1", "op": "Fill", "input": ["StatefulPartitionedCall/sequential/bidirectional_1/forward_lstm_1/zeros_1/packed", "StatefulPartitionedCall/sequential/bidirectional_1/forward_lstm_1/zeros_1/Const"], "attr": {"index_type": {"type": "DT_INT32"}, "T": {"type": "DT_FLOAT"}}}, {"name": "StatefulPartitionedCall/sequential/bidirectional_1/forward_lstm_1/zeros", "op": "Fill", "input": ["StatefulPartitionedCall/sequential/bidirectional_1/forward_lstm_1/zeros/packed", "StatefulPartitionedCall/sequential/bidirectional_1/forward_lstm_1/zeros/Const"], "attr": {"index_type": {"type": "DT_INT32"}, "T": {"type": "DT_FLOAT"}}}, {"name": "StatefulPartitionedCall/sequential/bidirectional_1/forward_lstm_1/PartitionedCall/while/merge/_277", "op": "Merge", "input": ["StatefulPartitionedCall/sequential/bidirectional_1/forward_lstm_1/PartitionedCall/while/enter/_266", "StatefulPartitionedCall/sequential/bidirectional_1/forward_lstm_1/PartitionedCall/while/next_iteration/_313"], "attr": {"T": {"type": "DT_VARIANT"}, "N": {"i": "2"}}}, {"name": "StatefulPartitionedCall/sequential/bidirectional_1/forward_lstm_1/PartitionedCall/TensorArrayV2_1", "op": "TensorListReserve", "input": ["StatefulPartitionedCall/sequential/bidirectional_1/forward_lstm_1/PartitionedCall/TensorArrayV2_1/element_shape", "StatefulPartitionedCall/sequential/bidirectional_1/forward_lstm_1/PartitionedCall/strided_slice"], "attr": {"shape_type": {"type": "DT_INT32"}, "element_dtype": {"type": "DT_FLOAT"}}, "experimentalType": {"typeId": "TFT_PRODUCT", "args": [{"typeId": "TFT_ARRAY", "args": [{"typeId": "TFT_TENSOR", "args": [{"typeId": "TFT_FLOAT"}]}]}]}}, {"name": "StatefulPartitionedCall/sequential/bidirectional_1/forward_lstm_1/PartitionedCall/while/enter/_265", "op": "Enter", "input": ["StatefulPartitionedCall/sequential…
l", "op": "MatMul", "input": ["StatefulPartitionedCall/sequential/bidirectional_2/forward_lstm_2/PartitionedCall/while/body/_378/while/TensorArrayV2Read/TensorListGetItem", "StatefulPartitionedCall/sequential/bidirectional_2/forward_lstm_2/PartitionedCall/while/Func/StatefulPartitionedCall/sequential/bidirectional_2/forward_lstm_2/PartitionedCall/input/_118_switch/_410:1"], "device": "/device:CPU:0", "attr": {"T": {"type": "DT_FLOAT"}, "transpose_a": {"b": false}, "transpose_b": {"b": false}}}, {"name": "StatefulPartitionedCall/sequential/bidirectional_2/forward_lstm_2/PartitionedCall/while/next_iteration/_428", "op": "NextIteration", "input": ["StatefulPartitionedCall/sequential/bidirectional_2/forward_lstm_2/PartitionedCall/while/body/_378/while/add_2", "^StatefulPartitionedCall/sequential/bidirectional_2/forward_lstm_2/PartitionedCall/while/loop_body_control/_413"], "attr": {"T": {"type": "DT_INT32"}}}, {"name": "StatefulPartitionedCall/sequential/bidirectional_2/forward_lstm_2/PartitionedCall/while/next_iteration/_426", "op": "NextIteration", "input": ["StatefulPartitionedCall/sequential/bidirectional_2/forward_lstm_2/PartitionedCall/while/body/_378/while/add_3", "^StatefulPartitionedCall/sequential/bidirectional_2/forward_lstm_2/PartitionedCall/while/loop_body_control/_413"], "attr": {"T": {"type": "DT_INT32"}}}, {"name": "StatefulPartitionedCall/sequential/bidirectional_2/backward_lstm_2/PartitionedCall/while/body/_438/while/MatMul", "op": "MatMul", "input": ["StatefulPartitionedCall/sequential/bidirectional_2/backward_lstm_2/PartitionedCall/while/body/_438/while/TensorArrayV2Read/TensorListGetItem", "StatefulPartitionedCall/sequential/bidirectional_2/backward_lstm_2/PartitionedCall/while/Func/StatefulPartitionedCall/sequential/bidirectional_2/backward_lstm_2/PartitionedCall/input/_129_switch/_470:1"], "device": "/device:CPU:0", "attr": {"transpose_b": {"b": false}, "transpose_a": {"b": false}, "T": {"type": "DT_FLOAT"}}}, {"name": "StatefulPartitionedCall/sequential/bidirectional_2/backward_lstm_2/PartitionedCall/while/next_iteration/_488", "op": "NextIteration", "input": ["StatefulPartitionedCall/sequential/bidirectional_2/backward_lstm_2/PartitionedCall/while/body/_438/while/add_2", "^StatefulPartitionedCall/sequential/bidirectional_2/backward_lstm_2/PartitionedCall/while/loop_body_control/_473"], "attr": {"T": {"type": "DT_INT32"}}}, {"name": "StatefulPartitionedCall/sequential/bidirectional_2/backward_lstm_2/PartitionedCall/while/next_iteration/_486", "op": "NextIteration", "input": ["StatefulPartitionedCall/sequential/bidirectional_2/backward_lstm_2/PartitionedCall/while/body/_438/while/add_3", "^StatefulPartitionedCall/sequential/bidirectional_2/backward_lstm_2/PartitionedCall/while/loop_body_control/_473"], "attr": {"T": {"type": "DT_INT32"}}}, {"name": "StatefulPartitionedCall/sequential/bidirectional_2/concat", "op": "ConcatV2", "input": ["StatefulPartitionedCall/sequential/bidirectional_2/forward_lstm_2/PartitionedCall/strided_slice_2", "StatefulPartitionedCall/sequential/bidirectional_2/backward_lstm_2/PartitionedCall/strided_slice_2", "StatefulPartitionedCall/sequential/bidirectional_2/concat/axis"], "attr": {"T": {"type": "DT_FLOAT"}, "Tidx": {"type": "DT_INT32"}, "N": {"i": "2"}}}, {"name": "StatefulPartitionedCall/sequential/bidirectional_2/forward_lstm_2/PartitionedCall/while/body/_378/while/add", "op": "AddV2", "input": ["StatefulPartitionedCall/sequential/bidirectional_2/forward_lstm_2/PartitionedCall/while/body/_378/while/MatMul", "StatefulPartitionedCall/sequential/bidirectional_2/forward_lstm_2/PartitionedCall/while/body/_378/while/MatMul_1"], "attr": {"T": {"type": "DT_FLOAT"}}}, {"name": "StatefulPartitionedCall/sequential/bidirectional_2/backward_lstm_2/PartitionedCall/while/body/_438/while/add", "op": "AddV2", "input": ["StatefulPartitionedCall/sequential/bidirectional_2/backward_lstm_2/PartitionedCall/while/body/_438/while/MatMul", "StatefulPartitionedCall/sequential/bidirectional_2/backward_lstm_2/PartitionedCall/while/body/_438/while/MatMul_1"], "attr": {"T": {"type": "DT_FLOAT"}}}, {"name": "StatefulPartitionedCall/sequential/batch_normalization_5/batchnorm/mul_1", "op": "Mul", "input": ["StatefulPartitionedCall/sequential/bidirectional_2/concat", "StatefulPartitionedCall/sequential/batch_normalization_5/batchnorm/mul"], "attr": {"T": {"type": "DT_FLOAT"}}}, {"name": "StatefulPartitionedCall/sequential/bidirectional_2/forward_lstm_2/PartitionedCall/while/body/_378/while/BiasAdd", "op": "BiasAdd", "input": ["StatefulPartitionedCall/sequential/bidirectional_2/forward_lstm_2/PartitionedCall/while/body/_378/while/add", "StatefulPartitionedCall/sequential/bidirectional_2/forward_lstm_2/PartitionedCall/while/Func/StatefulPartitionedCall/sequential/bidirectional_2/forward_lstm_2/PartitionedCall/input/_120_switch/_412:1"], "attr": {"data_format": {"s": "TkhXQw=="}, "T": {"type": "DT_FLOAT"}}}, {"name": "StatefulPartitionedCall/sequential/bidirectional_2/backward_lstm_2/PartitionedCall/while/body/_438/while/BiasAdd", "op": "BiasAdd", "input": ["StatefulPartitionedCall/sequential/bidirectional_2/backward_lstm_2/PartitionedCall/while/body/_438/while/add", "StatefulPartitionedCall/sequential/bidirectional_2/backward_lstm_2/PartitionedCall/while/Func/StatefulPartitionedCall/sequential/bidirectional_2/backward_lstm_2/PartitionedCall/input/_131_switch/_472:1"], "attr": {"data_format": {"s": "TkhXQw=="}, "T": {"type": "DT_FLOAT"}}}, {"name": "StatefulPartitionedCall/sequential/batch_normalization_5/batchnorm/add_1", "op": "AddV2", "input": ["StatefulPartitionedCall/sequential/batch_normalization_5/batchnorm/mul_1", "StatefulPartitionedCall/sequential/batch_normalization_5/batchnorm/sub"], "attr": {"T": {"type": "DT_FLOAT"}}}, {"name": "StatefulPartitionedCall/sequential/bidirectional_2/forward_lstm_2/PartitionedCall/while/body/_378/while/split", "op": "Split", "input": ["StatefulPartitionedCall/sequential/bidirectional_2/forward_lstm_2/PartitionedCall/while/body/_378/while/split/split_dim", "StatefulPartitionedCall/sequential/bidirectional_2/forward_lstm_2/PartitionedCall/while/body/_378/while/BiasAdd"], "attr": {"T": {"type": "DT_FLOAT"}, "num_split": {"i": "4"}}}, {"name": "StatefulPartitionedCall/sequential/bidirectional_2/backward_lstm_2/PartitionedCall/while/body/_438/while/split", "op": "Split", "input": ["StatefulPartitionedCall/sequential/bidirectional_2/backward_lstm_2/PartitionedCall/while/body/_438/while/split/split_dim", "StatefulPartitionedCall/sequential/bidirectional_2/backward_lstm_2/PartitionedCall/while/body/_438/while/BiasAdd"], "attr": {"T": {"type": "DT_FLOAT"}, "num_split": {"i": "4"}}}, {"name": "StatefulPartitionedCall/sequential/dense/Relu", "op": "_FusedMatMul", "input": ["StatefulPartitionedCall/sequential/batch_normalization_5/batchnorm/add_1", "StatefulPartitionedCall/sequential/dense/MatMul/ReadVariableOp", "StatefulPartitionedCall/sequential/dense/BiasAdd/ReadVariableOp"], "device": "/device:CPU:0", "attr": {"T": {"type": "DT_FLOAT"}, "num_args": {"i": "1"}, "epsilon": {"f": 0.0}, "fused_ops": {"list": {"s": ["Qmlhc0FkZA==", "UmVsdQ=="]}}, "transpose_a": {"b": false}, "transpose_b": {"b": false}}}, {"name": "StatefulPartitionedCall/sequential/bidirectional_2/forward_lstm_2/PartitionedCall/while/body/_378/while/Sigmoid", "op": "Sigmoid", "input": ["StatefulPartitionedCall/sequential/bidirectional_2/forward_lstm_2/PartitionedCall/while/body/_378/while/split"], "attr": {"T": {"type": "DT_FLOAT"}}}, {"name": "StatefulPartitionedCall/sequential/bidirectional_2/forward_lstm_2/PartitionedCall/while/body/_378/while/Sigmoid_1", "op": "Sigmoid", "input": ["StatefulPartitionedCall/sequential/bidirectional_2/forward_lstm_2/PartitionedCall/while/body/_378/while/split:1"], "attr": {"T": {"type": "DT_FLOAT"}}}, {"name": "StatefulPartitionedCall/sequential/bidirectional_2/forward_lstm_2/PartitionedCall/while/body/_378/while/Tanh", "op": "Tanh", "input": ["StatefulPartitionedCall/sequential/bidirectional_2/forward_lstm_2/PartitionedCall/while/body/_378/while/split:2"], "attr": {"T": {"type": "DT_FLOAT"}}}, {"name": "StatefulPartitionedCall/sequential/bidirectional_2/forward_lstm_2/PartitionedCall/while/body/_378/while/Sigmoid_2", "op": "Sigmoid", "input": ["StatefulPartitionedCall/sequential/bidirectional_2/forward_lstm_2/PartitionedCall/while/body/_378/while/split:3"], "attr": {"T": {"type": "DT_FLOAT"}}}, {"name": "StatefulPartitionedCall/sequential/bidirectional_2/backward_lstm_2/PartitionedCall/while/body/_438/while/Sigmoid", "op": "Sigmoid", "input": ["StatefulPartitionedCall/sequential/bidirectional_2/backward_lstm_2/PartitionedCall/while/body/_438/while/split"], "attr": {"T": {"type": "DT_FLOAT"}}}, {"name": "StatefulPartitionedCall/sequential/bidirectional_2/backward_lstm_2/PartitionedCall/while/body/_438/while/Sigmoid_1", "op": "Sigmoid", "input": ["StatefulPartitionedCall/sequential/bidirectional_2/backward_lstm_2/PartitionedCall/while/body/_438/while/split:1"], "attr": {"T": {"type": "DT_FLOAT"}}}, {"name": "StatefulPartitionedCall/sequential/bidirectional_2/backward_lstm_2/PartitionedCall/while/body/_438/while/Tanh", "op": "Tanh", "input": ["StatefulPartitionedCall/sequential/bidirectional_2/backward_lstm_2/PartitionedCall/while/body/_438/while/split:2"], "attr": {"T": {"type": "DT_FLOAT"}}}, {"name": "StatefulPartitionedCall/sequential/bidirectional_2/backward_lstm_2/PartitionedCall/while/body/_438/while/Sigmoid_2", "op": "Sigmoid", "input": ["StatefulPartitionedCall/sequential/bidirectional_2/backward_lstm_2/PartitionedCall/while/body/_438/while/split:3"], "attr": {"T": {"type": "DT_FLOAT"}}}, {"name": "StatefulPartitionedCall/sequential/batch_normalization_6/batchnorm/mul_1", "op": "Mul", "input": ["StatefulPartitionedCall/sequential/dense/Relu", "StatefulPartitionedCall/sequential/batch_normalization_6/batchnorm/mul"], "attr": {"T": {"type": "DT_FLOAT"}}}, {"name": "StatefulPartitionedCall/sequential/bidirectional_2/forward_lstm_2/PartitionedCall/while/body/_378/while/mul", "op": "Mul", "input": ["StatefulPartitionedCall/sequential/bidirectional_2/forward_lstm_2/PartitionedCall/while/body/_378/while/Sigmoid_1", "StatefulPartitionedCall/sequential/bidirectional_2/forward_lstm_2/PartitionedCall/while/Func/StatefulPartitionedCall/sequential/bidirectional_2/forward_lstm_2/PartitionedCall/input/_117_switch/_407:1"], "attr": {"T": {"type": "DT_FLOAT"}}}, {"name": "StatefulPartitionedCall/sequential/bidirectional_2/forward_lstm_2/PartitionedCall/while/body/_378/while/mul_1", "op": "Mul", "input": ["StatefulPartitionedCall/sequential/bidirectional_2/forward_lstm_2/PartitionedCall/while/body/_378/while/Sigmoid", "StatefulPartitionedCall/sequential/bidirectional_2/forward_lstm_2/PartitionedCall/while/body/_378/while/Tanh"], "attr": {"T": {"type": "DT_FLOAT"}}}, {"name": "StatefulPartitionedCall/sequential/bidirectional_2/backward_lstm_2/PartitionedCall/while/body/_438/while/mul", "op": "Mul", "input": ["StatefulPartitionedCall/sequential/bidirectional_2/backward_lstm_2/PartitionedCall/while/body/_438/while/Sigmoid_1", "StatefulPartitionedCall/sequential/bidirectional_2/backward_lstm_2/PartitionedCall/while/Func/StatefulPartitionedCall/sequential/bidirectional_2/backward_lstm_2/PartitionedCall/input/_128_switch/_467:1"], "attr": {"T": {"type": "DT_FLOAT"}}}, {"name": "StatefulPartitionedCall/sequential/bidirectional_2/backward_lstm_2/PartitionedCall/while/body/_438/while/mul_1", "op": "Mul", "input": ["StatefulPartitionedCall/sequential/bidirectional_2/backward_lstm_2/PartitionedCall/while/body/_438/while/Sigmoid", "StatefulPartitionedCall/sequential/bidirectional_2/backward_lstm_2/PartitionedCall/while/body/_438/while/Tanh"], "attr": {"T": {"type": "DT_FLOAT"}}}, {"name": "StatefulPartitionedCall/sequential/batch_normalization_6/batchnorm/add_1", "op": "AddV2", "input": ["StatefulPartitionedCall/sequential/batch_normalization_6/batchnorm/mul_1", "StatefulPartitionedCall/sequential/batch_normalization_6/batchnorm/sub"], "attr": {"T": {"type": "DT_FLOAT"}}}, {"name": "StatefulPartitionedCall/sequential/bidirectional_2/forward_lstm_2/PartitionedCall/while/body/_378/while/add_1", "op": "AddV2", "input": ["StatefulPartitionedCall/sequential/bidirectional_2/forward_lstm_2/PartitionedCall/while/body/_378/while/mul", "StatefulPartitionedCall/sequential/bidirectional_2/forward_lstm_2/PartitionedCall/while/body/_378/while/mul_1"], "attr": {"T": {"type": "DT_FLOAT"}}}, {"name": "StatefulPartitionedCall/sequential/bidirectional_2/backward_lstm_2/PartitionedCall/while/body/_438/while/add_1", "op": "AddV2", "input": ["StatefulPartitionedCall/sequential/bidirectional_2/backward_lstm_2/PartitionedCall/while/body/_438/while/mul", "StatefulPartitionedCall/sequential/bidirectional_2/backward_lstm_2/PartitionedCall/while/body/_438/while/mul_1"], "attr": {"T": {"type": "DT_FLOAT"}}}, {"name": "StatefulPartitionedCall/sequential/dense_1/BiasAdd", "op": "_FusedMatMul", "input": ["StatefulPartitionedCall/sequential/batch_normalization_6/batchnorm/add_1", "StatefulPartitionedCall/sequential/dense_1/MatMul/ReadVariableOp", "StatefulPartitionedCall/sequential/dense_1/BiasAdd/ReadVariableOp"], "device": "/device:CPU:0", "attr": {"transpose_b": {"b": false}, "epsilon": {"f": 0.0}, "num_args": {"i": "1"}, "T": {"type": "DT_FLOAT"}, "transpose_a": {"b": false}, "fused_ops": {"list": {"s": ["Qmlhc0FkZA=="]}}}}, {"name": "StatefulPartitionedCall/sequential/bidirectional_2/forward_lstm_2/PartitionedCall/while/body/_378/while/Tanh_1", "op": "Tanh", "input": ["StatefulPartitionedCall/sequential/bidirectional_2/forward_lstm_2/PartitionedCall/while/body/_378/while/add_1"], "attr": {"T": {"type": "DT_FLOAT"}}}, {"name": "StatefulPartitionedCall/sequential/bidirectional_2/forward_lstm_2/PartitionedCall/while/next_iteration/_431", "op": "NextIteration", "input": ["StatefulPartitionedCall/sequential/bidirectional_2/forward_lstm_2/PartitionedCall/while/body/_378/while/add_1", "^StatefulPartitionedCall/sequential/bidirectional_2/forward_lstm_2/PartitionedCall/while/loop_body_control/_413"], "attr": {"T": {"type": "DT_FLOAT"}}}, {"name": "StatefulPartitionedCall/sequential/bidirectional_2/backward_lstm_2/PartitionedCall/while/body/_438/while/Tanh_1", "op": "Tanh", "input": ["StatefulPartitionedCall/sequential/bidirectional_2/backward_lstm_2/PartitionedCall/while/body/_438/while/add_1"], "attr": {"T": {"type": "DT_FLOAT"}}}, {"name": "StatefulPartitionedCall/sequential/bidirectional_2/backward_lstm_2/PartitionedCall/while/next_iteration/_491", "op": "NextIteration", "input": ["StatefulPartitionedCall/sequential/bidirectional_2/backward_lstm_2/PartitionedCall/while/body/_438/while/add_1", "^StatefulPartitionedCall/sequential/bidirectional_2/backward_lstm_2/PartitionedCall/while/loop_body_control/_473"], "attr": {"T": {"type": "DT_FLOAT"}}}, {"name": "StatefulPartitionedCall/sequential/dense_1/Tanh", "op": "Tanh", "input": ["StatefulPartitionedCall/sequential/dense_1/BiasAdd"], "attr": {"T": {"type": "DT_FLOAT"}}}, {"name": "StatefulPartitionedCall/sequential/bidirectional_2/forward_lstm_2/PartitionedCall/while/body/_378/while/mul_2", "op": "Mul", "input": ["StatefulPartitionedCall/sequential/bidirectional_2/forward_lstm_2/PartitionedCall/while/body/_378/while/Sigmoid_2", "StatefulPartitionedCall/sequential/bidirectional_2/forward_lstm_2/PartitionedCall/while/body/_378/while/Tanh_1"], "attr": {"T": {"type": "DT_FLOAT"}}}, {"name": "StatefulPartitionedCall/sequential/bidirectional_2/backward_lstm_2/PartitionedCall/while/body/_438/while/mul_2", "op": "Mul", "input": ["StatefulPartitionedCall/sequential/bidirectional_2/backward_lstm_2/PartitionedCall/while/body/_438/while/Sigmoid_2", "StatefulPartitionedCall/sequential/bidirectional_2/backward_lstm_2/PartitionedCall/while/body/_438/while/Tanh_1"], "attr": {"T": {"type": "DT_FLOAT"}}}, {"name": "StatefulPartitionedCall/sequential/batch_normalization_7/batchnorm/mul_1", "op": "Mul", "input": ["StatefulPartitionedCall/sequential/dense_1/Tanh", "StatefulPartitionedCall/sequential/batch_normalization_7/batchnorm/mul"], "attr": {"T": {"type": "DT_FLOAT"}}}, {"name": "StatefulPartitionedCall/sequential/bidirectional_2/forward_lstm_2/PartitionedCall/while/next_iteration/_430", "op": "NextIteration", "input": ["StatefulPartitionedCall/sequential/bidirectional_2/forward_lstm_2/PartitionedCall/while/body/_378/while/mul_2", "^StatefulPartitionedCall/sequential/bidirectional_2/forward_lstm_2/PartitionedCall/while/loop_body_control/_413"], "attr": {"T": {"type": "DT_FLOAT"}}}, {"name": "StatefulPartitionedCall/sequential/bidirectional_2/forward_lstm_2/PartitionedCall/while/body/_378/while/TensorArrayV2Write/TensorListSetItem", "op": "TensorListSetItem", "input": ["StatefulPartitionedCall/sequential/bidirectional_2/forward_lstm_2/PartitionedCall/while/StatefulPartitionedCall/sequential/bidirectional_2/forward_lstm_2/PartitionedCall/TensorArrayV2_1_switch/_405:1", "StatefulPartitionedCall/sequential/bidirectional_2/forward_lstm_2/PartitionedCall/while/body/_378/while/TensorArrayV2Write/TensorListSetItem/index", "StatefulPartitionedCall/sequential/bidirectional_2/forward_lstm_2/PartitionedCall/while/body/_378/while/mul_2"], "attr": {"element_dtype": {"type": "DT_FLOAT"}}, "experimentalType": {"typeId": "TFT_PRODUCT", "args": [{"typeId": "TFT_ARRAY", "args": [{"typeId": "TFT_TENSOR", "args": [{"typeId": "TFT_FLOAT"}]}]}]}}, {"name": "StatefulPartitionedCall/sequential/bidirectional_2/backward_lstm_2/PartitionedCall/while/next_iteration/_490", "op": "NextIteration", "input": ["StatefulPartitionedCall/sequential/bidirectional_2/backward_lstm_2/PartitionedCall/while/body/_438/while/mul_2", "^StatefulPartitionedCall/sequential/bidirectional_2/backward_lstm_2/PartitionedCall/while/loop_body_control/_473"], "attr": {"T": {"type": "DT_FLOAT"}}}, {"name": "StatefulPartitionedCall/sequential/bidirectional_2/backward_lstm_2/PartitionedCall/while/body/_438/while/TensorArrayV2Write/TensorListSetItem", "op": "TensorListSetItem", "input": ["StatefulPartitionedCall/sequential/bidirectional_2/backward_lstm_2/PartitionedCall/while/StatefulPartitionedCall/sequential/bidirectional_2/backward_lstm_2/PartitionedCall/TensorArrayV2_1_switch/_465:1", "StatefulPartitionedCall/sequential/bidirectional_2/backward_lstm_2/PartitionedCall/while/body/_438/while/TensorArrayV2Write/TensorListSetItem/index", "StatefulPartitionedCall/sequential/bidirectional_2/backward_lstm_2/PartitionedCall/while/body/_438/while/mul_2"], "attr": {"element_dtype": {"type": "DT_FLOAT"}}, "experimentalType": {"typeId": "TFT_PRODUCT", "args": [{"typeId": "TFT_ARRAY", "args": [{"typeId": "TFT_TENSOR", "args": [{"typeId": "TFT_FLOAT"}]}]}]}}, {"name": "StatefulPartitionedCall/sequential/batch_normalization_7/batchnorm/add_1", "op": "AddV2", "input": ["StatefulPartitionedCall/sequential/batch_normalization_7/batchnorm/mul_1", "StatefulPartitionedCall/sequential/batch_normalization_7/batchnorm/sub"], "attr": {"T": {"type": "DT_FLOAT"}}}, {"name": "StatefulPartitionedCall/sequential/bidirectional_2/forward_lstm_2/PartitionedCall/while/next_iteration/_429", "op": "NextIteration", "input": ["StatefulPartitionedCall/sequential/bidirectional_2/forward_lstm_2/PartitionedCall/while/body/_378/while/TensorArrayV2Write/TensorListSetItem", "^StatefulPartitionedCall/sequential/bidirectional_2/forward_lstm_2/PartitionedCall/while/loop_body_control/_413"], "attr": {"T": {"type": "DT_VARIANT"}}}, {"name": "StatefulPartitionedCall/sequential/bidirectional_2/backward_lstm_2/PartitionedCall/while/next_iteration/_489", "op": "NextIteration", "input": ["StatefulPartitionedCall/sequential/bidirectional_2/backward_lstm_2/PartitionedCall/while/body/_438/while/TensorArrayV2Write/TensorListSetItem", "^StatefulPartitionedCall/sequential/bidirectional_2/backward_lstm_2/PartitionedCall/while/loop_body_control/_473"], "attr": {"T": {"type": "DT_VARIANT"}}}, {"name": "StatefulPartitionedCall/sequential/dense_2/BiasAdd", "op": "_FusedMatMul", "input": ["StatefulPartitionedCall/sequential/batch_normalization_7/batchnorm/add_1", "StatefulPartitionedCall/sequential/dense_2/MatMul/ReadVariableOp", "StatefulPartitionedCall/sequential/dense_2/BiasAdd/ReadVariableOp"], "device": "/device:CPU:0", "attr": {"epsilon": {"f": 0.0}, "fused_ops": {"list": {"s": ["Qmlhc0FkZA=="]}}, "num_args": {"i": "1"}, "transpose_b": {"b": false}, "T": {"type": "DT_FLOAT"}, "transpose_a": {"b": false}}}, {"name": "StatefulPartitionedCall/sequential/dense_2/Tanh", "op": "Tanh", "input": ["StatefulPartitionedCall/sequential/dense_2/BiasAdd"], "attr": {"T": {"type": "DT_FLOAT"}}}, {"name": "StatefulPartitionedCall/sequential/batch_normalization_8/batchnorm/mul_1", "op": "Mul", "input": ["StatefulPartitionedCall/sequential/dense_2/Tanh", "StatefulPartitionedCall/sequential/batch_normalization_8/batchnorm/mul"], "attr": {"T": {"type": "DT_FLOAT"}}}, {"name": "StatefulPartitionedCall/sequential/batch_normalization_8/batchnorm/add_1", "op": "AddV2", "input": ["StatefulPartitionedCall/sequential/batch_normalization_8/batchnorm/mul_1", "StatefulPartitionedCall/sequential/batch_normalization_8/batchnorm/sub"], "attr": {"T": {"type": "DT_FLOAT"}}}, {"name": "StatefulPartitionedCall/sequential/dense_3/BiasAdd", "op": "_FusedMatMul", "input": ["StatefulPartitionedCall/sequential/batch_normalization_8/batchnorm/add_1", "StatefulPartitionedCall/sequential/dense_3/MatMul/ReadVariableOp", "StatefulPartitionedCall/sequential/dense_3/BiasAdd/ReadVariableOp"], "device": "/device:CPU:0", "attr": {"T": {"type": "DT_FLOAT"}, "epsilon": {"f": 0.0}, "fused_ops": {"list": {"s": ["Qmlhc0FkZA=="]}}, "num_args": {"i": "1"}, "transpose_b": {"b": false}, "transpose_a": {"b": false}}}, {"name": "StatefulPartitionedCall/sequential/dense_3/Softmax", "op": "Softmax", "input": ["StatefulPartitionedCall/sequential/dense_3/BiasAdd"], "attr": {"T": {"type": "DT_FLOAT"}}}, {"name": "Identity", "op": "Identity", "input": ["StatefulPartitionedCall/sequential/dense_3/Softmax"], "attr": {"T": {"type": "DT_FLOAT"}}}], "library": {}, "versions": {"producer": 1087}}, "weightsManifest": [{"paths": ["group1-shard1of8.bin", "group1-shard2of8.bin", "group1-shard3of8.bin", "group1-shard4of8.bin", "group1-shard5of8.bin", "group1-shard6of8.bin", "group1-shard7of8.bin", "group1-shard8of8.bin"], "weights": [{"name": "StatefulPartitionedCall/sequential/bidirectional_2/forward_lstm_2/PartitionedCall/TensorArrayV2_1/element_shape", "shape": [2], "dtype": "int32"}, {"name": "StatefulPartitionedCall/sequential/bidirectional_2/forward_lstm_2/PartitionedCall/TensorArrayV2_1/num_elements", "shape": [], "dtype": "int32"}, {"name": "StatefulPartitionedCall/sequential/bidirectional_2/forward_lstm_2/zeros_1/packed/1", "shape": [], "dtype": "int32"}, {"name": "StatefulPartitionedCall/sequential/bidirectional_2/forward_lstm_2/zeros_1/Const", "shape": [], "dtype": "float32"}, {"name": "StatefulPartitionedCall/sequential/bidirectional_2/forward_lstm_2/PartitionedCall/TensorArrayUnstack/TensorListFromTensor/element_shape", "shape": [2], "dtype": "int32"}, {"name": "StatefulPartitionedCall/sequential/bidirectional_2/forward_lstm_2/Read/ReadVariableOp", "shape": [512, 2048], "dtype": "float32"}, {"name": "StatefulPartitionedCall/sequential/bidirectional_2/forward_lstm_2/strided_slice/stack", "shape": [1], "dtype": "int32"}, {"name": "StatefulPartitionedCall/sequential/bidirectional_2/forward_lstm_2/strided_slice/stack_1", "shape": [1], "dtype": "int32"}, {"name": "StatefulPartitionedCall/sequential/bidirectional_2/forward_lstm_2/strided_slice/stack_2", "shape": [1], "dtype": "int32"}, {"name": "StatefulPartitionedCall/sequential/bidirectional_2/forward_lstm_2/zeros/packed/1", "shape": [], "dtype": "int32"}, {"name": "StatefulPartitionedCall/sequential/bidirectional_2/forward_lstm_2/zeros/Const", "shape": [], "dtype": "float32"}, {"name": "StatefulPartitionedCall/sequential/bidirectional_2/forward_lstm_2/Read_1/ReadVariableOp", "shape": [512, 2048], "dtype": "float32"}, {"name": "StatefulPartitionedCall/sequential/bidirectional_2/forward_lstm_2/Read_2/ReadVariableOp", "shape": [2048], "dtype": "float32"}, {"name": "StatefulPartitionedCall/sequential/bidirectional_2/forward_lstm_2/PartitionedCall/time", "shape": [], "dtype": "int32"}, {"name": "StatefulPartitionedCall/sequential/bidirectional_2/forward_lstm_2/PartitionedCall/transpose/perm", "shape": [3], "dtype": "int32"}, {"name": "StatefulPartitionedCall/sequential/bidirectional_2/forward_lstm_2/PartitionedCall/strided_slice/stack", "shape": [1], "dtype": "int32"}, {"name": "StatefulPartitionedCall/sequential/bidirectional_2/forward_lstm_2/PartitionedCall/strided_slice/stack_1", "shape": [1], "dtype": "int32"}, {"name": "StatefulPartitionedCall/sequential/bidirectional_2/forward_lstm_2/PartitionedCall/strided_slice/stack_2", "shape": [1], "dtype": "int32"}, {"name": "StatefulPartitionedCall/sequential/bidirectional_2/forward_lstm_2/PartitionedCall/while/loop_counter", "shape": [], "dtype": "int32"}, {"name": "StatefulPartitionedCall/sequential/bidirectional_2/forward_lstm_2/PartitionedCall/TensorArrayV2Stack/TensorListStack/element_shape", "shape": [2], "dtype": "int32"}, {"name": "StatefulPartitionedCall/sequential/bidirectional_2/forward_lstm_2/PartitionedCall/strided_slice_2/stack", "shape": [1], "dtype": "int32"}, {"name": "StatefulPartitionedCall/sequential/bidirectional_2/forward_lstm_2/PartitionedCall/strided_slice_2/stack_1", "shape": [1], "dtype": "int32"}, {"name": "StatefulPartitionedCall/sequential/bidirectional_2/forward_lstm_2/PartitionedCall/strided_slice_2/stack_2", "shape": [1], "dtype": "int32"}, {"name": "StatefulPartitionedCall/sequential/bidirectional_2/backward_lstm_2/PartitionedCall/TensorArrayV2_1/element_shape", "shape": [2], "dtype": "int32"}, {"name": "StatefulPartitionedCall/sequential/bidirectional_2/backward_lstm_2/PartitionedCall/TensorArrayV2_1/num_elements", "shape": [], "dtype": "int32"}, {"name": "StatefulPartitionedCall/sequential/bidirectional_2/backward_lstm_2/zeros_1/packed/1", "shape": [], "dtype": "int32"}, {"name": "StatefulPartitionedCall/sequential/bidirectional_2/backward_lstm_2/zeros_1/Const", "shape": [], "dtype": "float32"}, {"name": "StatefulPartitionedCall/sequential/bidirectional_2/backward_lstm_2/PartitionedCall/ReverseV2/axis", "shape": [1], "dtype": "int32"}, {"name": "StatefulPartitionedCall/sequential/bidirectional_2/backward_lstm_2/PartitionedCall/TensorArrayUnstack/TensorListFromTensor/element_shape", "shape": [2], "dtype": "int32"}, {"name": "StatefulPartitionedCall/sequential/bidirectional_2/backward_lstm_2/Read/ReadVariableOp", "shape": [512, 2048], "dtype": "float32"}, {"name": "StatefulPartitionedCall/sequential/bidirectional_2/backward_lstm_2/strided_slice/stack", "shape": [1], "dtype": "int32"}, {"name": "StatefulPartitionedCall/sequential/bidirectional_2/backward_lstm_2/strided_slice/stack_1", "shape": [1], "dtype": "int32"}, {"name": "StatefulPartitionedCall/sequential/bidirectional_2/backward_lstm_2/strided_slice/stack_2", "shape": [1], "dtype": "int32"}, {"name": "StatefulPartitionedCall/sequential/bidirectional_2/backward_lstm_2/zeros/packed/1", "shape": [], "dtype": "int32"}, {"name": "StatefulPartitionedCall/sequential/bidirectional_2/backward_lstm_2/zeros/Const", "shape": [], "dtype": "float32"}, {"name": "StatefulPartitionedCall/sequential/bidirectional_2/backward_lstm_2/Read_1/ReadVariableOp", "shape": [512, 2048], "dtype": "float32"}, {"name": "StatefulPartitionedCall/sequential/bidirectional_2/backward_lstm_2/Read_2/ReadVariableOp", "shape": [2048], "dtype": "float32"}, {"name": "StatefulPartitionedCall/sequential/bidirectional_2/backward_lstm_2/PartitionedCall/time", "shape": [], "dtype": "int32"}, {"name": "StatefulPartitionedCall/sequential/bidirectional_1/forward_lstm_1/PartitionedCall/TensorArrayV2_1/element_shape", "shape": [2], "dtype": "int32"}, {"name": "StatefulPartitionedCall/sequential/bidirectional_1/forward_lstm_1/zeros_1/packed/1", "shape": [], "dtype": "int32"}, {"name": "StatefulPartitionedCall/sequential/bidirectional_1/forward_lstm_1/zeros_1/Const", "shape": [], "dtype": "float32"}, {"name": "StatefulPartitionedCall/sequential/bidirectional_1/forward_lstm_1/PartitionedCall/TensorArrayUnstack/TensorListFromTensor/element_shape", "shape": [2], "dtype": "int32"}, {"name": "StatefulPartitionedCall/sequential/bidirectional_1/forward_lstm_1/Read/ReadVariableOp", "shape": [256, 1024], "dtype": "float32"}, {"name": "StatefulPartitionedCall/sequential/bidirectional_1/forward_lstm_1/strided_slice/stack", "shape": [1], "dtype": "int32"}, {"name": "StatefulPartitionedCall/sequential/bidirectional_1/forward_lstm_1/strided_slice/stack_1", "shape": [1], "dtype": "int32"}, {"name": "StatefulPartitionedCall/sequential/bidirectional_1/forward_lstm_1/strided_slice/stack_2", "shape": [1], "dtype": "int32"}, {"name": "StatefulPartitionedCall/sequential/bidirectional_1/forward_lstm_1/zeros/packed/1", "shape": [], "dtype": "int32"}, {"name": "StatefulPartitionedCall/sequential/bidirectional_1/forward_lstm_1/zeros/Const", "shape": [], "dtype": "float32"}, {"name": "StatefulPartitionedCall/sequential/bidirectional_1/forward_lstm_1/Read_1/ReadVariableOp", "shape": [256, 1024], "dtype": "float32"}, {"name": "StatefulPartitionedCall/sequential/bidirectional_1/forward_lstm_1/Read_2/ReadVariableOp", "shape": [1024], "dtype": "float32"}, {"name": "StatefulPartitionedCall/sequential/bidirectional_1/forward_lstm_1/PartitionedCall/time", "shape": [], "dtype": "int32"}, {"name": "StatefulPartitionedCall/sequential/bidirectional_1/forward_lstm_1/PartitionedCall/transpose/perm", "shape": [3], "dtype": "int32"}, {"name": "StatefulPartitionedCall/sequential/bidirectional_1/forward_lstm_1/PartitionedCall/strided_slice/stack", "shape": [1], "dtype": "int32"}, {"name": "StatefulPartitionedCall/sequential/bidirectional_1/forward_lstm_1/PartitionedCall/strided_slice/stack_1", "shape": [1], "dtype": "int32"}, {"name": "StatefulPartitionedCall/sequential/bidirectional_1/forward_lstm_1/PartitionedCall/strided_slice/stack_2", "shape": [1], "dtype": "int32"}, {"name": "StatefulPartitionedCall/sequential/bidirectional_1/forward_lstm_1/PartitionedCall/while/loop_counter", "shape": [], "dtype": "int32"}, {"name": "StatefulPartitionedCall/sequential/bidirectional_1/forward_lstm_1/PartitionedCall/TensorArrayV2Stack/TensorListStack/element_shape", "shape": [2], "dtype": "int32"}, {"name": "StatefulPartitionedCall/sequential/bidirectional_1/forward_lstm_1/PartitionedCall/transpose_1/perm", "shape": [3], "dtype": "int32"}, {"name": "StatefulPartitionedCall/sequential/bidirectional_1/backward_lstm_1/PartitionedCall/TensorArrayV2_1/element_shape", "shape": [2], "dtype": "int32"}, {"name": "StatefulPartitionedCall/sequential/bidirectional_1/backward_lstm_1/zeros_1/packed/1", "shape": [], "dtype": "int32"}, {"name": "StatefulPartitionedCall/sequential/bidirectional_1/backward_lstm_1/zeros_1/Const", "shape": [], "dtype": "float32"}, {"name": "StatefulPartitionedCall/sequential/bidirectional_1/backward_lstm_1/PartitionedCall/ReverseV2/axis", "shape": [1], "dtype": "int32"}, {"name": "StatefulPartitionedCall/sequential/bidirectional_1/backward_lstm_1/PartitionedCall/TensorArrayUnstack/TensorListFromTensor/element_shape", "shape": [2], "dtype": "int32"}, {"name": "StatefulPartitionedCall/sequential/bidirectional_1/backward_lstm_1/Read/ReadVariableOp", "shape": [256, 1024], "dtype": "float32"}, {"name": "StatefulPartitionedCall/sequential/bidirectional_1/backward_lstm_1/strided_slice/stack", "shape": [1], "dtype": "int32"}, {"name": "StatefulPartitionedCall/sequential/bidirectional_1/backward_lstm_1/strided_slice/stack_1", "shape": [1], "dtype": "int32"}, {"name": "StatefulPartitionedCall/sequential/bidirectional_1/backward_lstm_1/strided_slice/stack_2", "shape": [1], "dtype": "int32"}, {"name": "StatefulPartitionedCall/sequential/bidirectional_1/backward_lstm_1/zeros/packed/1", "shape": [], "dtype": "int32"}, {"name": "StatefulPartitionedCall/sequential/bidirectional_1/backward_lstm_1/zeros/Const", "shape": [], "dtype": "float32"}, {"name": "StatefulPartitionedCall/sequential/bidirectional_1/backward_lstm_1/Read_1/ReadVariableOp", "shape": [256, 1024], "dtype": "float32"}, {"name": "StatefulPartitionedCall/sequential/bidirectional_1/backward_lstm_1/Read_2/ReadVariableOp", "shape": [1024], "dtype": "float32"}, {"name": "StatefulPartitionedCall/sequential/bidirectional_1/backward_lstm_1/PartitionedCall/time", "shape": [], "dtype": "int32"}, {"name": "StatefulPartitionedCall/sequential/bidirectional/forward_lstm/PartitionedCall/TensorArrayV2_1/element_shape", "shape": [2], "dtype": "int32"}, {"name": "StatefulPartitionedCall/sequential/bidirectional/forward_lstm/zeros_1/packed/1", "shape": [], "dtype": "int32"}, {"name": "StatefulPartitionedCall/sequential/bidirectional/forward_lstm/zeros_1/Const", "shape": [], "dtype": "float32"}, {"name": "StatefulPartitionedCall/sequential/bidirectional/forward_lstm/PartitionedCall/TensorArrayUnstack/TensorListFromTensor/element_shape", "shape": [2], "dtype": "int32"}, {"name": "StatefulPartitionedCall/sequential/bidirectional/forward_lstm/Read/ReadVariableOp", "shape": [256, 512], "dtype": "float32"}, {"name": "StatefulPartitionedCall/sequential/bidirectional/forward_lstm/strided_slice/stack", "shape": [1], "dtype": "int32"}, {"name": "StatefulPartitionedCall/sequential/bidirectional/forward_lstm/strided_slice/stack_1", "shape": [1], "dtype": "int32"}, {"name": "StatefulPartitionedCall/sequential/bidirectional/forward_lstm/strided_slice/stack_2", "shape": [1], "dtype": "int32"}, {"name": "StatefulPartitionedCall/sequential/bidirectional/forward_lstm/zeros/packed/1", "shape": [], "dtype": "int32"}, {"name": "StatefulPartitionedCall/sequential/bidirectional/forward_lstm/zeros/Const", "shape": [], "dtype": "float32"}, {"name": "StatefulPartitionedCall/sequential/bidirectional/forward_lstm/Read_1/ReadVariableOp", "shape": [128, 512], "dtype": "float32"}, {"name": "StatefulPartitionedCall/sequential/bidirectional/forward_lstm/Read_2/ReadVariableOp", "shape": [512], "dtype": "float32"}, {"name": "StatefulPartitionedCall/sequential/bidirectional/forward_lstm/PartitionedCall/time", "shape": [], "dtype": "int32"}, {"name": "StatefulPartitionedCall/sequential/bidirectional/forward_lstm/PartitionedCall/transpose/perm", "shape": [3], "dtype": "int32"}, {"name": "StatefulPartitionedCall/sequential/bidirectional/forward_lstm/PartitionedCall/strided_slice/stack", "shape": [1], "dtype": "int32"}, {"name": "StatefulPartitionedCall/sequential/bidirectional/forward_lstm/PartitionedCall/strided_slice/stack_1", "shape": [1], "dtype": "int32"}, {"name": "StatefulPartitionedCall/sequential/bidirectional/forward_lstm/PartitionedCall/strided_slice/stack_2", "shape": [1], "dtype": "int32"}, {"name": "StatefulPartitionedCall/sequential/bidirectional/forward_lstm/PartitionedCall/while/loop_counter", "shape": [], "dtype": "int32"}, {"name": "StatefulPartitionedCall/sequential/bidirectional/forward_lstm/PartitionedCall/TensorArrayV2Stack/TensorListStack/element_shape", "shape": [2], "dtype": "int32"}, {"name": "StatefulPartitionedCall/sequential/bidirectional/forward_lstm/PartitionedCall/transpose_1/perm", "shape": [3], "dtype": "int32"}, {"name": "StatefulPartitionedCall/sequential/bidirectional/backward_lstm/PartitionedCall/TensorArrayV2_1/element_shape", "shape": [2], "dtype": "int32"}, {"name": "StatefulPartitionedCall/sequential/bidirectional/backward_lstm/zeros_1/packed/1", "shape": [], "dtype": "int32"}, {"name": "StatefulPartitionedCall/sequential/bidirectional/backward_lstm/zeros_1/Const", "shape": [], "dtype": "float32"}, {"name": "StatefulPartitionedCall/sequential/bidirectional/backward_lstm/PartitionedCall/ReverseV2/axis", "shape": [1], "dtype": "int32"}, {"name": "StatefulPartitionedCall/sequential/bidirectional/backward_lstm/PartitionedCall/TensorArrayUnstack/TensorListFromTensor/element_shape", "shape": [2], "dtype": "int32"}, {"name": "StatefulPartitionedCall/sequential/bidirectional/backward_lstm/Read/ReadVariableOp", "shape": [256, 512], "dtype": "float32"}, {"name": "StatefulPartitionedCall/sequential/bidirectional/backward_lstm/strided_slice/stack", "shape": [1], "dtype": "int32"}, {"name": "StatefulPartitionedCall/sequential/bidirectional/backward_lstm/strided_slice/stack_1", "shape": [1], "dtype": "int32"}, {"name": "StatefulPartitionedCall/sequential/bidirectional/backward_lstm/strided_slice/stack_2", "shape": [1], "dtype": "int32"}, {"name": "StatefulPartitionedCall/sequential/bidirectional/backward_lstm/zeros/packed/1", "shape": [], "dtype": "int32"}, {"name": "StatefulPartitionedCall/sequential/bidirectional/backward_lstm/zeros/Const", "shape": [], "dtype": "float32"}, {"name": "StatefulPartitionedCall/sequential/bidirectional/backward_lstm/Read_1/ReadVariableOp", "shape": [128, 512], "dtype": "float32"}, {"name": "StatefulPartitionedCall/sequential/bidirectional/backward_lstm/Read_2/ReadVariableOp", "shape": [512], "dtype": "float32"}, {"name": "StatefulPartitionedCall/sequential/bidirectional/backward_lstm/PartitionedCall/time", "shape": [], "dtype": "int32"}, {"name": "StatefulPartitionedCall/sequential/conv1d/Conv1D/ExpandDims/dim", "shape": [], "dtype": "int32"}, {"name": "StatefulPartitionedCall/sequential/conv1d/Conv1D/ExpandDims_1", "shape": [1, 3, 94, 64], "dtype": "float32"}, {"name": "StatefulPartitionedCall/sequential/conv1d/BiasAdd/ReadVariableOp", "shape": [64], "dtype": "float32"}, {"name": "StatefulPartitionedCall/sequential/batch_normalization/batchnorm/mul", "shape": [64], "dtype": "float32"}, {"name": "StatefulPartitionedCall/sequential/batch_normalization/batchnorm/sub", "shape": [64], "dtype": "float32"}, {"name": "StatefulPartitionedCall/sequential/max_pooling1d/ExpandDims/dim", "shape": [], "dtype": "int32"}, {"name": "StatefulPartitionedCall/sequential/conv1d_1/Conv1D/ExpandDims/dim", "shape": [], "dtype": "int32"}, {"name": "StatefulPartitionedCall/sequential/conv1d_1/Conv1D/ExpandDims_1", "shape": [1, 3, 64, 128], "dtype": "float32"}, {"name": "StatefulPartitionedCall/sequential/conv1d_1/BiasAdd/ReadVariableOp", "shape": [128], "dtype": "float32"}, {"name": "StatefulPartitionedCall/sequential/batch_normalization_1/batchnorm/mul", "shape": [128], "dtype": "float32"}, {"name": "StatefulPartitionedCall/sequential/batch_normalization_1/batchnorm/sub", "shape": [128], "dtype": "float32"}, {"name": "StatefulPartitionedCall/sequential/max_pooling1d_1/ExpandDims/dim", "shape": [], "dtype": "int32"}, {"name": "StatefulPartitionedCall/sequential/conv1d_2/Conv1D/ExpandDims/dim", "shape": [], "dtype": "int32"}, {"name": "StatefulPartitionedCall/sequential/conv1d_2/Conv1D/ExpandDims_1", "shape": [1, 3, 128, 256], "dtype": "float32"}, {"name": "StatefulPartitionedCall/sequential/conv1d_2/BiasAdd/ReadVariableOp", "shape": [256], "dtype": "float32"}, {"name": "StatefulPartitionedCall/sequential/batch_normalization_2/batchnorm/mul", "shape": [256], "dtype": "float32"}, {"name": "StatefulPartitionedCall/sequential/batch_normalization_2/batchnorm/sub", "shape": [256], "dtype": "float32"}, {"name": "StatefulPartitionedCall/sequential/max_pooling1d_2/ExpandDims/dim", "shape": [], "dtype": "int32"}, {"name": "StatefulPartitionedCall/sequential/bidirectional/backward_lstm/PartitionedCall/transpose/perm", "shape": [3], "dtype": "int32"}, {"name": "StatefulPartitionedCall/sequential/bidirectional/backward_lstm/PartitionedCall/strided_slice/stack", "shape": [1], "dtype": "int32"}, {"name": "StatefulPartitionedCall/sequential/bidirectional/backward_lstm/PartitionedCall/strided_slice/stack_1", "shape": [1], "dtype": "int32"}, {"name": "StatefulPartitionedCall/sequential/bidirectional/backward_lstm/PartitionedCall/strided_slice/stack_2", "shape": [1], "dtype": "int32"}, {"name": "StatefulPartitionedCall/sequential/bidirectional/backward_lstm/PartitionedCall/while/loop_counter", "shape": [], "dtype": "int32"}, {"name": "StatefulPartitionedCall/sequential/bidirectional/backward_lstm/PartitionedCall/TensorArrayV2Stack/TensorListStack/element_shape", "shape": [2], "dtype": "int32"}, {"name": "StatefulPartitionedCall/sequential/bidirectional/backward_lstm/PartitionedCall/transpose_1/perm", "shape": [3], "dtype": "int32"}, {"name": "StatefulPartitionedCall/sequential/bidirectional/ReverseV2/axis", "shape": [1], "dtype": "int32"}, {"name": "StatefulPartitionedCall/sequential/bidirectional/concat/axis", "shape": [], "dtype": "int32"}, {"name": "StatefulPartitionedCall/sequential/batch_normalization_3/batchnorm/mul", "shape": [256], "dtype": "float32"}, {"name": "StatefulPartitionedCall/sequential/batch_normalization_3/batchnorm/sub", "shape": [256], "dtype": "float32"}, {"name": "StatefulPartitionedCall/sequential/bidirectional_1/backward_lstm_1/PartitionedCall/transpose/perm", "shape": [3], "dtype": "int32"}, {"name": "StatefulPartitionedCall/sequential/bidirectional_1/backward_lstm_1/PartitionedCall/strided_slice/stack", "shape": [1], "dtype": "int32"}, {"name": "StatefulPartitionedCall/sequential/bidirectional_1/backward_lstm_1/PartitionedCall/strided_slice/stack_1", "shape": [1], "dtype": "int32"}, {"name": "StatefulPartitionedCall/sequential/bidirectional_1/backward_lstm_1/PartitionedCall/strided_slice/stack_2", "shape": [1], "dtype": "int32"}, {"name": "StatefulPartitionedCall/sequential/bidirectional_1/backward_lstm_1/PartitionedCall/while/loop_counter", "shape": [], "dtype": "int32"}, {"name": "StatefulPartitionedCall/sequential/bidirectional_1/backward_lstm_1/PartitionedCall/TensorArrayV2Stack/TensorListStack/element_shape", "shape": [2], "dtype": "int32"}, {"name": "StatefulPartitionedCall/sequential/bidirectional_1/backward_lstm_1/PartitionedCall/transpose_1/perm", "shape": [3], "dtype": "int32"}, {"name": "StatefulPartitionedCall/sequential/bidirectional_1/ReverseV2/axis", "shape": [1], "dtype": "int32"}, {"name": "StatefulPartitionedCall/sequential/bidirectional_1/concat/axis", "shape": [], "dtype": "int32"}, {"name": "StatefulPartitionedCall/sequential/batch_normalization_4/batchnorm/mul", "shape": [512], "dtype": "float32"}, {"name": "StatefulPartitionedCall/sequential/batch_normalization_4/batchnorm/sub", "shape": [512], "dtype": "float32"}, {"name": "StatefulPartitionedCall/sequential/bidirectional_2/backward_lstm_2/PartitionedCall/transpose/perm", "shape": [3], "dtype": "int32"}, {"name": "StatefulPartitionedCall/sequential/bidirectional_2/backward_lstm_2/PartitionedCall/strided_slice/stack", "shape": [1], "dtype": "int32"}, {"name": "StatefulPartitionedCall/sequential/bidirectional_2/backward_lstm_2/PartitionedCall/strided_slice/stack_1", "shape": [1], "dtype": "int32"}, {"name": "StatefulPartitionedCall/sequential/bidirectional_2/backward_lstm_2/PartitionedCall/strided_slice/stack_2", "shape": [1], "dtype": "int32"}, {"name": "StatefulPartitionedCall/sequential/bidirectional_2/backward_lstm_2/PartitionedCall/while/loop_counter", "shape": [], "dtype": "int32"}, {"name": "StatefulPartitionedCall/sequential/bidirectional_2/backward_lstm_2/PartitionedCall/TensorArrayV2Stack/TensorListStack/element_shape", "shape": [2], "dtype": "int32"}, {"name": "StatefulPartitionedCall/sequential/bidirectional_2/backward_lstm_2/PartitionedCall/strided_slice_2/stack", "shape": [1], "dtype": "int32"}, {"name": "StatefulPartitionedCall/sequential/bidirectional_2/backward_lstm_2/PartitionedCall/strided_slice_2/stack_1", "shape": [1], "dtype": "int32"}, {"name": "StatefulPartitionedCall/sequential/bidirectional_2/backward_lstm_2/PartitionedCall/strided_slice_2/stack_2", "shape": [1], "dtype": "int32"}, {"name": "StatefulPartitionedCall/sequential/bidirectional_2/concat/axis", "shape": [], "dtype": "int32"}, {"name": "StatefulPartitionedCall/sequential/batch_normalization_5/batchnorm/mul", "shape": [1024], "dtype": "float32"}, {"name": "StatefulPartitionedCall/sequential/batch_normalization_5/batchnorm/sub", "shape": [1024], "dtype": "float32"}, {"name": "StatefulPartitionedCall/sequential/dense/MatMul/ReadVariableOp", "shape": [1024, 1024], "dtype": "float32"}, {"name": "StatefulPartitionedCall/sequential/dense/BiasAdd/ReadVariableOp", "shape": [1024], "dtype": "float32"}, {"name": "StatefulPartitionedCall/sequential/batch_normalization_6/batchnorm/mul", "shape": [1024], "dtype": "float32"}, {"name": "StatefulPartitionedCall/sequential/batch_normalization_6/batchnorm/sub", "shape": [1024], "dtype": "float32"}, {"name": "StatefulPartitionedCall/sequential/dense_1/MatMul/ReadVariableOp", "shape": [1024, 512], "dtype": "float32"}, {"name": "StatefulPartitionedCall/sequential/dense_1/BiasAdd/ReadVariableOp", "shape": [512], "dtype": "float32"}, {"name": "StatefulPartitionedCall/sequential/batch_normalization_7/batchnorm/mul", "shape": [512], "dtype": "float32"}, {"name": "StatefulPartitionedCall/sequential/batch_normalization_7/batchnorm/sub", "shape": [512], "dtype": "float32"}, {"name": "StatefulPartitionedCall/sequential/dense_2/MatMul/ReadVariableOp", "shape": [512, 256], "dtype": "float32"}, {"name": "StatefulPartitionedCall/sequential/dense_2/BiasAdd/ReadVariableOp", "shape": [256], "dtype": "float32"}, {"name": "StatefulPartitionedCall/sequential/batch_normalization_8/batchnorm/mul", "shape": [256], "dtype": "float32"}, {"name": "StatefulPartitionedCall/sequential/batch_normalization_8/batchnorm/sub", "shape": [256], "dtype": "float32"}, {"name": "StatefulPartitionedCall/sequential/dense_3/MatMul/ReadVariableOp", "shape": [256, 6], "dtype": "float32"}, {"name": "StatefulPartitionedCall/sequential/dense_3/BiasAdd/ReadVariableOp", "shape": [6], "dtype": "float32"}, {"name": "StatefulPartitionedCall/sequential/bidirectional/forward_lstm/PartitionedCall/while/body/_138/while/split/split_dim", "shape": [], "dtype": "int32"}, {"name": "StatefulPartitionedCall/sequential/bidirectional/forward_lstm/PartitionedCall/while/body/_138/while/TensorArrayV2Read/TensorListGetItem/element_shape", "shape": [2], "dtype": "int32"}, {"name": "StatefulPartitionedCall/sequential/bidirectional/forward_lstm/PartitionedCall/while/body/_138/while/add_2/y", "shape": [], "dtype": "int32"}, {"name": "StatefulPartitionedCall/sequential/bidirectional/forward_lstm/PartitionedCall/while/body/_138/while/add_3/y", "shape": [], "dtype": "int32"}, {"name": "StatefulPartitionedCall/sequential/bidirectional/backward_lstm/PartitionedCall/while/body/_198/while/split/split_dim", "shape": [], "dtype": "int32"}, {"name": "StatefulPartitionedCall/sequential/bidirectional/backward_lstm/PartitionedCall/while/body/_198/while/TensorArrayV2Read/TensorListGetItem/element_shape", "shape": [2], "dtype": "int32"}, {"name": "StatefulPartitionedCall/sequential/bidirectional/backward_lstm/PartitionedCall/while/body/_198/while/add_2/y", "shape": [], "dtype": "int32"}, {"name": "StatefulPartitionedCall/sequential/bidirectional/backward_lstm/PartitionedCall/while/body/_198/while/add_3/y", "shape": [], "dtype": "int32"}, {"name": "StatefulPartitionedCall/sequential/bidirectional_1/forward_lstm_1/PartitionedCall/while/body/_258/while/split/split_dim", "shape": [], "dtype": "int32"}, {"name": "StatefulPartitionedCall/sequential/bidirectional_1/forward_lstm_1/PartitionedCall/while/body/_258/while/TensorArrayV2Read/TensorListGetItem/element_shape", "shape": [2], "dtype": "int32"}, {"name": "StatefulPartitionedCall/sequential/bidirectional_1/forward_lstm_1/PartitionedCall/while/body/_258/while/add_2/y", "shape": [], "dtype": "int32"}, {"name": "StatefulPartitionedCall/sequential/bidirectional_1/forward_lstm_1/PartitionedCall/while/body/_258/while/add_3/y", "shape": [], "dtype": "int32"}, {"name": "StatefulPartitionedCall/sequential/bidirectional_1/backward_lstm_1/PartitionedCall/while/body/_318/while/split/split_dim", "shape": [], "dtype": "int32"}, {"name": "StatefulPartitionedCall/sequential/bidirectional_1/backward_lstm_1/PartitionedCall/while/body/_318/while/TensorArrayV2Read/TensorListGetItem/element_shape", "shape": [2], "dtype": "int32"}, {"name": "StatefulPartitionedCall/sequential/bidirectional_1/backward_lstm_1/PartitionedCall/while/body/_318/while/add_2/y", "shape": [], "dtype": "int32"}, {"name": "StatefulPartitionedCall/sequential/bidirectional_1/backward_lstm_1/PartitionedCall/while/body/_318/while/add_3/y", "shape": [], "dtype": "int32"}, {"name": "StatefulPartitionedCall/sequential/bidirectional_2/forward_lstm_2/PartitionedCall/while/body/_378/while/TensorArrayV2Write/TensorListSetItem/index", "shape": [], "dtype": "int32"}, {"name": "StatefulPartitionedCall/sequential/bidirectional_2/forward_lstm_2/PartitionedCall/while/body/_378/while/split/split_dim", "shape": [], "dtype": "int32"}, {"name": "StatefulPartitionedCall/sequential/bidirectional_2/forward_lstm_2/PartitionedCall/while/body/_378/while/TensorArrayV2Read/TensorListGetItem/element_shape", "shape": [2], "dtype": "int32"}, {"name": "StatefulPartitionedCall/sequential/bidirectional_2/forward_lstm_2/PartitionedCall/while/body/_378/while/add_2/y", "shape": [], "dtype": "int32"}, {"name": "StatefulPartitionedCall/sequential/bidirectional_2/forward_lstm_2/PartitionedCall/while/body/_378/while/add_3/y", "shape": [], "dtype": "int32"}, {"name": "StatefulPartitionedCall/sequential/bidirectional_2/backward_lstm_2/PartitionedCall/while/body/_438/while/TensorArrayV2Write/TensorListSetItem/index", "shape": [], "dtype": "int32"}, {"name": "StatefulPartitionedCall/sequential/bidirectional_2/backward_lstm_2/PartitionedCall/while/body/_438/while/split/split_dim", "shape": [], "dtype": "int32"}, {"name": "StatefulPartitionedCall/sequential/bidirectional_2/backward_lstm_2/PartitionedCall/while/body/_438/while/TensorArrayV2Read/TensorListGetItem/element_shape", "shape": [2], "dtype": "int32"}, {"name": "StatefulPartitionedCall/sequential/bidirectional_2/backward_lstm_2/PartitionedCall/while/body/_438/while/add_2/y", "shape": [], "dtype": "int32"}, {"name": "StatefulPartitionedCall/sequential/bidirectional_2/backward_lstm_2/PartitionedCall/while/body/_438/while/add_3/y", "shape": [], "dtype": "int32"}]}]}